KungFuAthleteBot/src/demo/gvhmr/ground/3/3.pt (torch, 440587 bytes, 27 tensors)

body_pose f4 [100, 63]
00000000: 682c 82be 730e 803d 20b0 c5bc 046c 12be
00000010: c33e eabd bba3 c23a 6368 833e 78a9 0c3d
00000020: da74 3d3d b07b 943e 3868 cbbd 9b49 b5bd
00000030: dd28 263e 6eea a83d 0609 7abc 6e1c 0ebe
00000040: 26e8 c93a e9db 30bd 9660 bbb9 8d15 6d3e
00000050: ccc8 cabd da88 b6bd f769 6dbe c7a5 e13d
00000060: 5b87 cd3d 7f90 cc3c e544 333d 1277 50bc
00000070: 654e 8cbb 8660 24bb c75e 98bc b46b a8b9
00000080: ab53 583c 4bad 7f3e b752 babe 5aba ebbd
00000090: 2f6d d0bd b9f7 8cbc 0190 113e 12b5 71bd
000000a0: bd0d 1c3e dd21 5dbe 0cf2 b1be 4a80 b7be
000000b0: 2b17 5a3e 8014 67be eb2f ef3d 6d9b ae3e
000000c0: 2b6a 73be 06f6 adbd a955 4ebe 624d 97be
000000d0: 1000 a4bc ea84 3dbe 8d9c 803d 9450 a83e
000000e0: 7374 1e3e 713d d23e 2741 d9bd 366d acbe
000000f0: 73a7 a43e 09ce cb3d b59e e53e 7869 81be
00000100: 0e26 5d3d 81bc 24bd fda9 26be 9293 c0bd
00000110: eee1 6439 6ced 8e3e c079 843c 02f9 8a3d
00000120: c336 9b3e 62c7 b3bd 1f1b c1bd 1aec 553e
00000130: 9530 ce3d b716 a0bc 02e7 0dbe 64c7 813b
00000140: fb2e 4ebd 9038 f83b 0600 713e a905 d8bd
00000150: e3ed b5bd a4d5 66be 1194 d63d 0fd6 e63d
00000160: a27e 793c 06ed 0a3d 1db3 65bc d252 a5bb
00000170: 5972 163a cda1 c1bc f459 5e39 2920 853c
00000180: 2b46 753e 3088 c5be 840f e7bd 205f a7bd
00000190: e9e5 ccbb aef5 b83d 158d 90bd 43d6 1e3e
000001a0: f2d6 70be 1e01 b6be 76c5 a3be 5830 4d3e
000001b0: 64cd 43be 8451 223e 3ea8 7b3e 4699 92be
000001c0: 1705 83bd 3d3d 7dbe 89ea 91be fb8b 9ebc
000001d0: e510 43be 53d3 513c aef0 b23e 04b9 1b3e
000001e0: 062b b33e 760d fdbd d81d 99be f091 a93e
000001f0: 0712 033e 58d7 c73e d861 83be 3d58 463d
00000200: a60d 4bbd 2a01 53be fc6e 95bd 7d6f 26bc
00000210: 24de 983e 5349 0bbc bab0 bd3d 602c a83e
00000220: 36fa 92bd 7748 dbbd 25de 8d3e 3305 be3d
00000230: eb06 39bc ded3 04be c32a 8a3b 68d5 58bd
00000240: f6fd 373c 36ab 603e 8c4f dbbd ff3d dcbd
00000250: c5dd 55be 1e91 bc3d 4142 e43d b32d 3d3b
00000260: c7f1 a63c c42f 9abc 634d 9abb 6dd4 873b
00000270: 7e91 f0bc 2aa7 28ba 3550 a43c 1a73 5b3e
00000280: 7093 c9be b07c d7bd 950b 51bd 1381 2cbb
00000290: b259 5b3c 9101 abbd 2a9d 2a3e d816 72be
000002a0: e37a a7be 5e7c 8abe d247 283e 797c 0ebe
000002b0: 5e09 473e 8fd0 9d3d b596 b3be 9344 84bc
000002c0: fef4 90be a416 65be 102a a0bc a96f 41be
000002d0: a318 83bd 4940 ca3e 4d8b f63d a17b 923e
000002e0: 2ee4 dfbd dd62 8fbe 6e70 a83e 6913 1b3e
000002f0: 7c5f a33e 60fd 87be dca1 1b3d 5611 33bd
00000300: 9e91 87be 493a 14bd 77c5 4dbc 750d a23e
00000310: 2f82 32bd 5fef fd3d 7b6a b83e 29c4 1cbd
00000320: 6f6b f9bd 76d7 b93e bdee 953d 54db 123a
00000330: 0843 efbd f0c9 a7bb cbda 2bbd 18b8 843b
00000340: 32ec 483e 91a3 babd 00ee ffbd f03e 49be
00000350: d13b 5f3d 3199 cb3d 19f7 81bc 58b4 a23b
00000360: bdea 9fbc cad0 b7bb d4b0 d83b 06b1 1cbd
00000370: c7f0 f8ba 0fcd d83c b65a 413e 8edc ccbe
00000380: 1a59 bfbd 1219 6ebc dfd2 c0bc 48c2 b6bd
00000390: 5359 ddbd 495f 493e 6372 70be 8fe9 8dbe
000003a0: 826b 47be 28e8 f23d 3bb9 9abd 98ff 433e
000003b0: 82bf 4bbe cb13 d8be e22d 633d c7e7 96be
000003c0: 194f 0cbe fe19 58bd 8f68 23be 7d7f 36be
000003d0: f9ca 033f a805 083d c95f 4f3e 3b50 ebbd
000003e0: 9fec 8fbe 1d43 8f3e 44ff 433e 30ed 823e
000003f0: 56a9 95be 72a9 c03c 6bbf 24bd 7a42 adbe
-0.25424504 0.06252756 -0.024131835 -0.14299017 -0.11437752 0.0014849821 0.25665578 0.034341305
0.046254016 0.29000616 -0.099319875 -0.0885193 0.16226526 0.08247839 -0.01526094 -0.13878033
0.0015404269 -0.043178473 -0.00035739382 0.23152752 -0.0990158 -0.08912821 -0.23184954 0.11017948
0.10035583 0.024971245 0.043766875 -0.012723701 -0.0042818063 -0.0025081947 -0.01859988 -0.00032123702
0.013203542 0.2496845 -0.3639123 -0.11510153 -0.10177075 -0.017207967 0.1421509 -0.059010573
0.15239616 -0.21594949 -0.3475498 -0.35840064 0.212979 -0.22566414 0.116790615 0.34102955
-0.23770969 -0.08494191 -0.20149864 -0.29551226 -0.020019561 -0.18507734 0.0627986 0.32873976
0.1547411 0.410625 -0.1060813 -0.3367707 0.32159004 0.099514075 0.44847646 -0.2527578
0.05399137 -0.040218834 -0.16275783 -0.09403147 0.0002182794 0.27915514 0.016171336 0.06785776
0.30315217 -0.08778264 -0.09429001 0.20890847 0.1006786 -0.019542081 -0.13857654 0.003960537
-0.050337773 0.007575102 0.23535165 -0.105479546 -0.08883264 -0.22542435 0.1047746 0.11271297
0.0152279455 0.03391745 -0.014019755 -0.0050452733 0.0005739085 -0.023636723 0.0002120508 0.016250687
0.23952548 -0.38580465 -0.11282256 -0.081724405 -0.0062529934 0.09031235 -0.07058159 0.15511422
-0.23519495 -0.35547727 -0.31986588 0.20037973 -0.19121319 0.15851408 0.24575898 -0.28632563
-0.06397455 -0.24730392 -0.2849925 -0.019353857 -0.19049414 0.012806731 0.3494925 0.15207297
0.34993762 -0.12356083 -0.2990558 0.33119154 0.12799846 0.39031482 -0.25660586 0.048423994
-0.049573563 -0.20605913 -0.07296559 -0.010158417 0.2985698 -0.008501369 0.092622235 0.32846355
-0.0717663 -0.10707181 0.27708545 0.092783354 -0.011293153 -0.12971446 0.0042165234 -0.052937895
0.011229983 0.21940312 -0.10708532 -0.10754012 -0.2088538 0.092073664 0.111454494 0.002886635
0.02037896 -0.018821605 -0.0047089322 0.004145196 -0.029366251 -0.0006433601 0.020057777 0.21430627
-0.39370298 -0.10521829 -0.051036436 -0.0026322051 0.013388084 -0.08349908 0.16661516 -0.23641527
-0.32710943 -0.2704801 0.16433647 -0.1391467 0.19437167 0.07705795 -0.35075918 -0.01614598
-0.28311914 -0.22371918 -0.019551307 -0.18890251 -0.064011835 0.3950217 0.12038288 0.28609946
-0.10932194 -0.28005114 0.32898277 0.15144123 0.31908786 -0.26560497 0.037996158 -0.043717705
-0.26478285 -0.036188398 -0.012559286 0.31650892 -0.043581184 0.12399172 0.36018738 -0.03827301
-0.121786945 0.36297196 0.07320926 0.00056021404 -0.11682707 -0.0051205084 -0.041956704 0.004050266
0.19621351 -0.09113229 -0.12496567 -0.19652915 0.054500405 0.09941328 -0.015864896 0.0049653463
-0.019521112 -0.0056096064 0.0066128764 -0.03825476 -0.0018992656 0.026464967 0.1888226 -0.4001202
-0.09343167 -0.014532344 -0.023538051 -0.08923775 -0.10808053 0.19665255 -0.23481135 -0.27717254
-0.19474605 0.118606865 -0.07554861 0.1914047 -0.19897273 -0.422026 0.05546368 -0.29473707
-0.13702048 -0.052759163 -0.15957855 -0.1782207 0.51481587 0.03320852 0.20251383 -0.11489912
-0.28110215 0.2798089 0.19140345 0.25571585 -0.29230756 0.023518298 -0.040221613 -0.3383978

betas f4 [100, 10]
00000000: 5149 9d3e 7672 993e cc45 d9be 201c 88be
00000010: 8081 0a3c fe00 d9be 2802 643d f8c9 05bf
00000020: 3246 06bf f611 843d 5149 9d3e 7672 993e
00000030: cc45 d9be 201c 88be 8081 0a3c fe00 d9be
00000040: 2802 643d f8c9 05bf 3246 06bf f611 843d
00000050: 5149 9d3e 7672 993e cc45 d9be 201c 88be
00000060: 8081 0a3c fe00 d9be 2802 643d f8c9 05bf
00000070: 3246 06bf f611 843d 5149 9d3e 7672 993e
00000080: cc45 d9be 201c 88be 8081 0a3c fe00 d9be
00000090: 2802 643d f8c9 05bf 3246 06bf f611 843d
000000a0: 5149 9d3e 7672 993e cc45 d9be 201c 88be
000000b0: 8081 0a3c fe00 d9be 2802 643d f8c9 05bf
000000c0: 3246 06bf f611 843d 5149 9d3e 7672 993e
000000d0: cc45 d9be 201c 88be 8081 0a3c fe00 d9be
000000e0: 2802 643d f8c9 05bf 3246 06bf f611 843d
000000f0: 5149 9d3e 7672 993e cc45 d9be 201c 88be
00000100: 8081 0a3c fe00 d9be 2802 643d f8c9 05bf
00000110: 3246 06bf f611 843d 5149 9d3e 7672 993e
00000120: cc45 d9be 201c 88be 8081 0a3c fe00 d9be
00000130: 2802 643d f8c9 05bf 3246 06bf f611 843d
00000140: 5149 9d3e 7672 993e cc45 d9be 201c 88be
00000150: 8081 0a3c fe00 d9be 2802 643d f8c9 05bf
00000160: 3246 06bf f611 843d 5149 9d3e 7672 993e
00000170: cc45 d9be 201c 88be 8081 0a3c fe00 d9be
00000180: 2802 643d f8c9 05bf 3246 06bf f611 843d
00000190: 5149 9d3e 7672 993e cc45 d9be 201c 88be
000001a0: 8081 0a3c fe00 d9be 2802 643d f8c9 05bf
000001b0: 3246 06bf f611 843d 5149 9d3e 7672 993e
000001c0: cc45 d9be 201c 88be 8081 0a3c fe00 d9be
000001d0: 2802 643d f8c9 05bf 3246 06bf f611 843d
000001e0: 5149 9d3e 7672 993e cc45 d9be 201c 88be
000001f0: 8081 0a3c fe00 d9be 2802 643d f8c9 05bf
00000200: 3246 06bf f611 843d 5149 9d3e 7672 993e
00000210: cc45 d9be 201c 88be 8081 0a3c fe00 d9be
00000220: 2802 643d f8c9 05bf 3246 06bf f611 843d
00000230: 5149 9d3e 7672 993e cc45 d9be 201c 88be
00000240: 8081 0a3c fe00 d9be 2802 643d f8c9 05bf
00000250: 3246 06bf f611 843d 5149 9d3e 7672 993e
00000260: cc45 d9be 201c 88be 8081 0a3c fe00 d9be
00000270: 2802 643d f8c9 05bf 3246 06bf f611 843d
00000280: 5149 9d3e 7672 993e cc45 d9be 201c 88be
00000290: 8081 0a3c fe00 d9be 2802 643d f8c9 05bf
000002a0: 3246 06bf f611 843d 5149 9d3e 7672 993e
000002b0: cc45 d9be 201c 88be 8081 0a3c fe00 d9be
000002c0: 2802 643d f8c9 05bf 3246 06bf f611 843d
000002d0: 5149 9d3e 7672 993e cc45 d9be 201c 88be
000002e0: 8081 0a3c fe00 d9be 2802 643d f8c9 05bf
000002f0: 3246 06bf f611 843d 5149 9d3e 7672 993e
00000300: cc45 d9be 201c 88be 8081 0a3c fe00 d9be
00000310: 2802 643d f8c9 05bf 3246 06bf f611 843d
00000320: 5149 9d3e 7672 993e cc45 d9be 201c 88be
00000330: 8081 0a3c fe00 d9be 2802 643d f8c9 05bf
00000340: 3246 06bf f611 843d 5149 9d3e 7672 993e
00000350: cc45 d9be 201c 88be 8081 0a3c fe00 d9be
00000360: 2802 643d f8c9 05bf 3246 06bf f611 843d
00000370: 5149 9d3e 7672 993e cc45 d9be 201c 88be
00000380: 8081 0a3c fe00 d9be 2802 643d f8c9 05bf
00000390: 3246 06bf f611 843d 5149 9d3e 7672 993e
000003a0: cc45 d9be 201c 88be 8081 0a3c fe00 d9be
000003b0: 2802 643d f8c9 05bf 3246 06bf f611 843d
000003c0: 5149 9d3e 7672 993e cc45 d9be 201c 88be
000003d0: 8081 0a3c fe00 d9be 2802 643d f8c9 05bf
000003e0: 3246 06bf f611 843d 5149 9d3e 7672 993e
000003f0: cc45 d9be 201c 88be 8081 0a3c fe00 d9be
0.30719998 0.2997014 -0.42436063 -0.26583958 0.008453727 -0.4238357 0.05566612 -0.52261305
-0.5245086 0.06448738 0.30719998 0.2997014 -0.42436063 -0.26583958 0.008453727 -0.4238357
0.05566612 -0.52261305 -0.5245086 0.06448738 0.30719998 0.2997014 -0.42436063 -0.26583958
0.008453727 -0.4238357 0.05566612 -0.52261305 -0.5245086 0.06448738 0.30719998 0.2997014
-0.42436063 -0.26583958 0.008453727 -0.4238357 0.05566612 -0.52261305 -0.5245086 0.06448738
0.30719998 0.2997014 -0.42436063 -0.26583958 0.008453727 -0.4238357 0.05566612 -0.52261305
-0.5245086 0.06448738 0.30719998 0.2997014 -0.42436063 -0.26583958 0.008453727 -0.4238357
0.05566612 -0.52261305 -0.5245086 0.06448738 0.30719998 0.2997014 -0.42436063 -0.26583958
0.008453727 -0.4238357 0.05566612 -0.52261305 -0.5245086 0.06448738 0.30719998 0.2997014
-0.42436063 -0.26583958 0.008453727 -0.4238357 0.05566612 -0.52261305 -0.5245086 0.06448738
0.30719998 0.2997014 -0.42436063 -0.26583958 0.008453727 -0.4238357 0.05566612 -0.52261305
-0.5245086 0.06448738 0.30719998 0.2997014 -0.42436063 -0.26583958 0.008453727 -0.4238357
0.05566612 -0.52261305 -0.5245086 0.06448738 0.30719998 0.2997014 -0.42436063 -0.26583958
0.008453727 -0.4238357 0.05566612 -0.52261305 -0.5245086 0.06448738 0.30719998 0.2997014
-0.42436063 -0.26583958 0.008453727 -0.4238357 0.05566612 -0.52261305 -0.5245086 0.06448738
0.30719998 0.2997014 -0.42436063 -0.26583958 0.008453727 -0.4238357 0.05566612 -0.52261305
-0.5245086 0.06448738 0.30719998 0.2997014 -0.42436063 -0.26583958 0.008453727 -0.4238357
0.05566612 -0.52261305 -0.5245086 0.06448738 0.30719998 0.2997014 -0.42436063 -0.26583958
0.008453727 -0.4238357 0.05566612 -0.52261305 -0.5245086 0.06448738 0.30719998 0.2997014
-0.42436063 -0.26583958 0.008453727 -0.4238357 0.05566612 -0.52261305 -0.5245086 0.06448738
0.30719998 0.2997014 -0.42436063 -0.26583958 0.008453727 -0.4238357 0.05566612 -0.52261305
-0.5245086 0.06448738 0.30719998 0.2997014 -0.42436063 -0.26583958 0.008453727 -0.4238357
0.05566612 -0.52261305 -0.5245086 0.06448738 0.30719998 0.2997014 -0.42436063 -0.26583958
0.008453727 -0.4238357 0.05566612 -0.52261305 -0.5245086 0.06448738 0.30719998 0.2997014
-0.42436063 -0.26583958 0.008453727 -0.4238357 0.05566612 -0.52261305 -0.5245086 0.06448738
0.30719998 0.2997014 -0.42436063 -0.26583958 0.008453727 -0.4238357 0.05566612 -0.52261305
-0.5245086 0.06448738 0.30719998 0.2997014 -0.42436063 -0.26583958 0.008453727 -0.4238357
0.05566612 -0.52261305 -0.5245086 0.06448738 0.30719998 0.2997014 -0.42436063 -0.26583958
0.008453727 -0.4238357 0.05566612 -0.52261305 -0.5245086 0.06448738 0.30719998 0.2997014
-0.42436063 -0.26583958 0.008453727 -0.4238357 0.05566612 -0.52261305 -0.5245086 0.06448738
0.30719998 0.2997014 -0.42436063 -0.26583958 0.008453727 -0.4238357 0.05566612 -0.52261305
-0.5245086 0.06448738 0.30719998 0.2997014 -0.42436063 -0.26583958 0.008453727 -0.4238357

global_orient f4 [100, 3]
00000000: 2fb9 4c3c aee1 3440 b7e0 113d 3dcd d03b
00000010: af4a 3340 7d7f 613d e329 b1ba 91df 3040
00000020: 14a9 883d 6ff3 e2bc e71a 2f40 e0ed 7d3d
00000030: a767 37bd 7750 2c40 c049 833d 9815 87bd
00000040: 6e76 2a40 c0a3 db3d b877 bfbd 28b1 2940
00000050: 94f6 303e ef09 ecbd e03b 2940 d394 6f3e
00000060: 39d6 d7bd 17fb 2740 97de 913e 61a2 81bd
00000070: 1733 2640 a36a 9e3e f3a9 34bd aca8 2340
00000080: cebb b03e a9a6 bbbc c46c 2140 aeb2 d33e
00000090: 1f93 d8bc 23d0 2040 7287 e63e f065 04bd
000000a0: 40dd 2140 fb36 f53e f965 1fbd aa96 2340
000000b0: 8385 013f d997 09bd a5ff 2540 d5da f73e
000000c0: 445e 09bd 5675 2940 d11c e83e 59c6 a6bc
000000d0: 0332 2d40 ca5a c53e 52b9 84ba 14a1 3040
000000e0: 6ff8 b13e 9065 bb3c f9e1 3240 0965 a13e
000000f0: 01ab 7f3d 63b2 3540 9119 9a3e cd58 443d
00000100: eb03 3640 1a93 953e dd60 4b3c 6c14 3640
00000110: a14a 983e d41d 09bd e010 3740 d53d 8b3e
00000120: a8fe acbd 2956 3840 3a30 453e ba8f 12be
00000130: 22cc 3940 1efe 193e b7d2 21be ac2b 3d40
00000140: 1f6c 253e 854a 4abe e447 3f40 e5f8 7e3e
00000150: 27a5 6fbe d8f9 3f40 a490 803e e05c 8abe
00000160: 4504 3f40 b308 7b3e deb8 afbe f00d 3c40
00000170: 8400 883e e062 d5be cbbd 3840 dea3 a13e
00000180: 1a44 e2be c11f 3740 f68e ad3e 784a d8be
00000190: 3954 3740 02d2 b63e cbf3 ccbe a84e 3740
000001a0: e267 bc3e 5ac4 b0be 8206 3740 d602 c73e
000001b0: 3da2 96be 77ab 3740 01ca cc3e 6a21 4fbe
000001c0: ed51 3840 1d5b b43e a582 1abe 99a0 3940
000001d0: fec2 8f3e e3fd b3bd c287 3940 aa14 5e3e
000001e0: 45bd 63bd b3e6 3b40 d220 383e ce5b 68bd
000001f0: 09c7 3e40 f7ed 383e ab9f b6bd 1e86 4140
00000200: 6a0d 2f3e 0231 c3bd 8963 4440 8ec5 283e
00000210: b518 cfbd d422 4840 6d6f 283e 181c bd3d
00000220: 6564 45c0 6ce5 42be 125f a13d 9335 41c0
00000230: 3e9d 6fbe deb0 703d 669f 3bc0 a228 90be
00000240: 4666 253d a07f 33c0 539f 90be 26c9 813d
00000250: df93 28c0 0167 55be e557 8c3d 7e26 1bc0
00000260: 47f1 d8bd 8bbf d23d df5e 0ac0 7b17 d1bd
00000270: 2182 a93d 0acb fabf a61d e3bd 4623 1c3d
00000280: e098 dcbf 2c65 dcbd 1920 223c c48c bcbf
00000290: ea25 a7bd ed0a 7e3b db23 9fbf c2de 30bd
000002a0: 2c98 cb3c 0c81 73bf 03ea 6bbc 7012 913d
000002b0: 1cb7 2abf e90e 0c3d d503 043e 31f0 afbe
000002c0: b224 763d ce97 213e 4e12 163d 05da bc3d
000002d0: 8c9c 1f3e a30e d73e 7b89 fa3d 324c 3c3e
000002e0: 2f13 283f db3e fc3d 5ed9 3e3e 3445 4e3f
000002f0: 197a 063e 3173 333e 8075 663f 9ab0 ea3d
00000300: 11bb 083e aee1 853f 6635 b73d 4fdd 1e3e
00000310: 2bee 983f 81cf 9d3d 7504 143e 3f0d b23f
00000320: 6c81 a73d 79ec 033e f8e6 d13f e14c c43d
00000330: 79fe ce3d 1019 f73f e716 063e eb99 673d
00000340: 9766 1040 0ac0 3b3e 2f92 163c 00d5 2440
00000350: 6e86 433e d08a a3bc 6634 3a40 2fba 2e3e
00000360: 496a fbbc c2b5 4640 d005 523e 707e df3c
00000370: c539 3fc0 49ef 64be 1999 353d 1f2e 31c0
00000380: 8396 2ebe 70cd 643c e6bc 25c0 bf53 e7bd
00000390: ee18 95bc f5fe 1ec0 f685 b7bc c321 b5bc
000003a0: 18b1 1bc0 2bf1 cb3c 8080 0abc 03fe 1ac0
000003b0: 5b28 9bbb 0ac6 603c f7ff 1dc0 be0e 0cbd
000003c0: db6e 723d 78b1 22c0 e4fb 87bd 3f1b 613d
000003d0: 97fa 28c0 77e5 06be 7b58 4d3d b8cf 2ec0
000003e0: 5f80 2bbe a025 cf3c 8a6d 33c0 cba0 51be
000003f0: a0c5 2d3d 5474 38c0 4d20 35be d216 573d
0.012495323 2.8262744 0.035614695 0.0063721226 2.8014333 0.055053223 -0.0013516512 2.7636454
0.06672874 -0.027703969 2.736017 0.061994433 -0.044776585 2.6924112 0.06410551 -0.065959156
2.6634784 0.10724592 -0.093490064 2.6514378 0.17281562 -0.11525332 2.6442795 0.23396616
-0.105389066 2.6247003 0.28490135 -0.063297994 2.5968683 0.30940732 -0.04410739 2.55717
0.34518284 -0.022906618 2.5222635 0.4134726 -0.02643734 2.5127037 0.45025212 -0.032323778
2.529129 0.4789351 -0.038915608 2.5560708 0.5059435 -0.03359208 2.5937283 0.48409143
-0.033537164 2.6477866 0.45334485 -0.020358251 2.7061775 0.3854583 -0.001012603 2.7598314
0.34759852 0.022875577 2.7950423 0.31522396 0.06241894 2.8390129 0.3009763 0.04793625
2.8439891 0.29213792 0.012413231 2.8449965 0.29744437 -0.033475712 2.860405 0.27195612
-0.08447009 2.8802588 0.19256678 -0.1431264 2.9030843 0.15038344 -0.15803038 2.9557905
0.16154526 -0.1975499 2.9887629 0.24899633 -0.23402844 2.9996243 0.25110352 -0.27023983
2.9846356 0.24515037 -0.3432073 2.9383507 0.26562893 -0.41676998 2.886584 0.31570333
-0.44192582 2.861313 0.33898133 -0.42244315 2.8645155 0.35707098 -0.4002975 2.8641758
0.36798006 -0.34524804 2.8597722 0.3886935 -0.29420653 2.8698404 0.39997867 -0.2022759
2.8800004 0.35225764 -0.150889 2.900427 0.28078455 -0.087886594 2.898911 0.2168757
-0.055600423 2.9359558 0.1798127 -0.056728177 2.9808981 0.18059526 -0.08917173 3.0238109
0.17094961 -0.09530832 3.0685751 0.16481611 -0.10112134 3.1271257 0.16448756 0.09233874
-3.0842526 -0.1903283 0.07879461 -3.018895 -0.23399827 0.058762424 -2.931604 -0.28156
0.04038074 -2.8046646 -0.28246555 0.06337194 -2.6340253 -0.20840074 0.06852702 -2.4242244
-0.10592895 0.1029044 -2.1620405 -0.10209557 0.08276773 -1.9593213 -0.11089639 0.038119577
-1.7234154 -0.107614845 0.009895348 -1.4730458 -0.081615284 0.0038763836 -1.2432817 -0.04318119
0.024852835 -0.95118785 -0.014399054 0.07083595 -0.6668565 0.034193907 0.12892087 -0.3436294
0.06009359 0.15780565 0.03663855 0.092212714 0.15587062 0.42003354 0.122332536 0.18388441
0.6565427 0.12316676 0.18637607 0.80574346 0.13132514 0.17524411 0.9002304 0.11459465
0.1335261 1.0459497 0.08945732 0.1551411 1.1947683 0.07705594 0.14454825 1.3910292
0.08178982 0.12883176 1.6398611 0.09584976 0.101071306 1.9304523 0.13094674 0.056543272
2.2562616 0.18334976 0.009190126 2.5755005 0.1909425 -0.019963652 2.9094481 0.17063211
-0.03069033 3.1048436 0.2051003 0.02728197 -2.987901 -0.22356905 0.04433546 -2.76844
-0.17049603 0.013964996 -2.5896544 -0.1129527 -0.018200364 -2.4843113 -0.022402745 -0.022110825
-2.432684 0.024895271 -0.008453488 -2.4217536 -0.0047350354 0.013719091 -2.4687479 -0.034193747
0.05918775 -2.5420818 -0.06639841 0.054957625 -2.6402948 -0.13173471 0.05013321 -2.7314281
-0.16748188 0.025286496 -2.8035607 -0.20471494 0.042424798 -2.8821 -0.17688103 0.052511998

transl f4 [100, 3]
00000000: e4a6 67bc 4756 a63f bd9f 9c3b 8e36 b3bc
00000010: ec3b a63f 33f2 d13b 1cc0 02bd c0ef a53f
00000020: 8211 053c 45eb 34bd 454e a53f acec 213c
00000030: 92cb 6ebd b35a a33f 918b 3f3c 3245 97bd
00000040: cbee a03f 05b3 5d3c c627 b9bd 9345 9e3f
00000050: cc07 7b3c 9056 dcbd e7a0 9b3f f3a2 8a3c
00000060: 1f2f 00be 2a5c 973f 5280 953c 5378 12be
00000070: bc45 943f 76f9 9e3c d7d8 24be df60 913f
00000080: dd19 aa3c ff0b 37be 9fa6 8e3f 3b94 bb3c
00000090: 88c0 48be 98f0 8c3f 1e43 d83c 0cb9 59be
000000a0: d77e 8c3f 98b8 013d d3ed 69be 8df6 8c3f
000000b0: a9da 1e3d b496 79be e059 8e3f 7f5d 423d
000000c0: 6689 84be daf0 8f3f f4e3 693d 4a5d 8cbe
000000d0: 9199 923f bd27 893d 1f5b 94be 643c 943f
000000e0: 861f 9c3d 0f76 9cbe 153b 953f ac4d ac3d
000000f0: cd85 a4be cdc1 953f 0097 b83d a754 acbe
00000100: 8130 953f ec93 c03d a7af b3be 79e8 913f
00000110: 1eb0 c43d 0f75 babe b3ef 8f3f b60f c63d
00000120: a99e c0be ca46 903f 3d3e c63d 9643 c6be
00000130: d506 903f fcc3 c63d 2f8c cbbe 4cdf 8d3f
00000140: 3ec5 c83d 2297 d0be 7cc6 8b3f aabf cc3d
00000150: 5f57 d5be a410 8a3f a068 d23d 2e7b d9be
00000160: ea3a 893f f5ab d83d 356c dcbe a54c 893f
00000170: dad6 dd3d 556d ddbe 95b6 8a3f 19f5 df3d
00000180: 94cc dbbe 1242 8c3f 1f52 dd3d 4215 d7be
00000190: 774e 8e3f 62ec d43d 812f cfbe ef19 903f
000001a0: a4a7 c63d 7f65 c4be e869 903f bc2c b33d
000001b0: f252 b7be e3a1 903f df96 9b3d 67c9 a8be
000001c0: 02d2 8d3f 5225 813d 4fb2 99be 8455 8a3f
000001d0: 5f2d 4a3d 1ff3 8abe 8cdd 843f 6253 113d
000001e0: b3a8 7abe af67 813f 6496 b43c 5de0 62be
000001f0: 7111 813f 5a7c 1e3c d65b 4fbe d24c 813f
00000200: 5105 8eba d89d 40be f598 813f b124 21bc
00000210: bf10 37be 2685 813f 6580 86bc df37 33be
00000220: 92ce 803f 4840 abbc 36bc 35be 9730 803f
00000230: 94c2 c0bc 8e41 3fbe fbc5 803f b239 c9bc
00000240: 3810 50be ca71 823f 3cf4 c5bc 0fbe 67be
00000250: b5d6 833f 20d0 b6bc ff85 82be 18fe 853f
00000260: 2fac 9abc 2e0b 93be 4e1d 8c3f 4638 61bc
00000270: 8666 a4be 041a 8f3f b0c2 e4bb 51bf b5be
00000280: 1ad8 913f d9b7 8d3a 2b9c c6be b627 943f
00000290: dc96 213c 0deb d6be eeb5 963f 24a6 983c
000002a0: 76e5 e6be e056 993f 5045 da3c 67e4 f6be
000002b0: 4431 9b3f 6738 083d 959c 03bf ba7f 9d3f
000002c0: 14ed 1b3d 260a 0cbf 8a4b 9f3f 7ee0 273d
000002d0: dfbc 14bf bcd1 9e3f 2300 2d3d 5d9e 1dbf
000002e0: cbcc 9c3f 8438 2d3d 0f81 26bf ca6b 9c3f
000002f0: 97e8 2a3d 7d26 2fbf 9490 9c3f fa47 283d
00000300: a04b 37bf 1a17 9c3f 34f5 263d d3b9 3ebf
00000310: 087e 9c3f 0aca 273d 2456 45bf 9255 9d3f
00000320: e0f9 2a3d 3f29 4bbf 9038 9e3f ac5b 303d
00000330: 555b 50bf fcab 9d3f 78b7 373d 2225 55bf
00000340: a9d4 9c3f f2e6 403d abbb 59bf 4c5a 9a3f
00000350: e6c2 4b3d ff3d 5ebf afca 943f 05fd 573d
00000360: 81ab 62bf 6eef 903f 6d1e 653d 88e5 66bf
00000370: b59f 8d3f 1cce 723d 34bb 6abf 6fda 8c3f
00000380: 0ca5 803d 3cfb 6dbf 3cc3 883f 50e5 883d
00000390: 3386 70bf c8a5 853f 4f3e 933d a85c 72bf
000003a0: 6444 843f faf5 a03d 2fa6 73bf 85a9 823f
000003b0: cc01 b33d 27b0 74bf 1cb0 813f 0389 c93d
000003c0: 44e3 75bf b65f 813f 55aa e33d dbaf 77bf
000003d0: 2c6c 803f 77ad ff3d 3473 7abf ef46 7e3f
000003e0: d2c8 0d3e a35c 7ebf 82eb 7b3f 7bdb 1a3e
000003f0: 64ae 81bf 94d8 753f 10a8 263e b793 84bf
-0.014138911 1.299508 0.0047797845 -0.0218766 1.2987037 0.006407046 -0.03192149 1.2963791
0.00812185 -0.044169683 1.2914511 0.009883087 -0.05829961 1.2762054 0.01169099 -0.07386245
1.2572874 0.013531451 -0.09040789 1.2364982 0.015321683 -0.10758698 1.2158478 0.016923403
-0.12517975 1.1825001 0.018249664 -0.14303713 1.1583781 0.019406062 -0.16098343 1.1357688
0.020764286 -0.1787567 1.1144599 0.02289783 -0.19604695 1.1010923 0.026399191 -0.21261996
1.0976208 0.031670183 -0.22844629 1.1012741 0.03878275 -0.24373895 1.1121178 0.047452446
-0.25886077 1.1245377 0.05710216 -0.27414924 1.1453115 0.066970326 -0.2897577 1.158093
0.076232 -0.30558822 1.1658655 0.08413252 -0.32133332 1.1699768 0.09013176 -0.33658335
1.1655427 0.09403214 -0.3509495 1.139907 0.09603904 -0.36417434 1.1245025 0.096709654
-0.37621048 1.1271603 0.0967984 -0.3872344 1.1252085 0.0970535 -0.3975539 1.108377
0.09803246 -0.40740305 1.0919948 0.099974945 -0.4166822 1.0786328 0.10273862 -0.4247679
1.0721104 0.10579673 -0.43051305 1.0726515 0.10831995 -0.43247476 1.083697 0.109354205
-0.42929518 1.0957663 0.10806679 -0.42008406 1.1117696 0.10396649 -0.4046593 1.1257914
0.09699944 -0.38358685 1.128232 0.08748767 -0.3580547 1.1299404 0.07597136 -0.32966158
1.1079714 0.063059464 -0.3001885 1.0807347 0.049359675 -0.27138612 1.0380111 0.03547991
-0.24478416 1.0109767 0.022044368 -0.221559 1.0083448 0.009673202 -0.20249876 1.0101569
-0.0010835325 -0.18810213 1.0124804 -0.009835408 -0.17877482 1.0118759 -0.016418645 -0.17501782
1.006304 -0.020904675 -0.17747578 1.0014828 -0.023530282 -0.18677351 1.0060419 -0.024563644
-0.20318687 1.0190976 -0.024164312 -0.22631095 1.0299898 -0.022316039 -0.25492856 1.0468168
-0.018880932 -0.28719467 1.0946443 -0.013746327 -0.3210947 1.1179814 -0.0069812164 -0.35497525
1.1394074 0.0010812237 -0.38791022 1.1574619 0.009862628 -0.41976205 1.177427 0.01863391
-0.4509694 1.1979637 0.026644379 -0.48221132 1.212441 0.033256914 -0.514108 1.2304604
0.038067892 -0.54702985 1.2444928 0.040985577 -0.58100694 1.2407756 0.04223646 -0.6156977
1.2249998 0.042290226 -0.6504068 1.2220395 0.04172572 -0.68418103 1.2231622 0.041084267
-0.7159977 1.219455 0.040761188 -0.74502295 1.2225962 0.040964164 -0.77084565 1.2291739
0.041742206 -0.7935981 1.2361012 0.043056175 -0.8138936 1.231811 0.044852704 -0.83259785
1.2252399 0.047095247 -0.85051984 1.2058806 0.049746417 -0.8681335 1.1624354 0.052731533
-0.88542944 1.1323068 0.05593722 -0.90193987 1.1064364 0.059278592 -0.916919 1.1004161
0.0628148 -0.9296148 1.0684581 0.06684363 -0.9395477 1.0441217 0.07189619 -0.9467263
1.0333371 0.07859416 -0.9517545 1.0207983 0.08740577 -0.9558129 1.0131869 0.09840586
-0.96049905 1.0107334 0.11116473 -0.9675271 1.0033011 0.12484258 -0.97832036 0.99326986
0.13846138 -0.993601 0.9840623 0.15122788 -1.0131345 0.96033597 0.16275048 -1.0357579

body_pose f4 [100, 63]
00000000: 682c 82be 730e 803d 20b0 c5bc 046c 12be
00000010: c33e eabd bba3 c23a 6368 833e 78a9 0c3d
00000020: da74 3d3d b07b 943e 3868 cbbd 9b49 b5bd
00000030: dd28 263e 6eea a83d 0609 7abc 6e1c 0ebe
00000040: 26e8 c93a e9db 30bd 9660 bbb9 8d15 6d3e
00000050: ccc8 cabd da88 b6bd f769 6dbe c7a5 e13d
00000060: 5b87 cd3d 7f90 cc3c e544 333d 1277 50bc
00000070: 654e 8cbb 8660 24bb c75e 98bc b46b a8b9
00000080: ab53 583c 4bad 7f3e b752 babe 5aba ebbd
00000090: 2f6d d0bd b9f7 8cbc 0190 113e 12b5 71bd
000000a0: bd0d 1c3e dd21 5dbe 0cf2 b1be 4a80 b7be
000000b0: 2b17 5a3e 8014 67be eb2f ef3d 6d9b ae3e
000000c0: 2b6a 73be 06f6 adbd a955 4ebe 624d 97be
000000d0: 1000 a4bc ea84 3dbe 8d9c 803d 9450 a83e
000000e0: 7374 1e3e 713d d23e 2741 d9bd 366d acbe
000000f0: 73a7 a43e 09ce cb3d b59e e53e 7869 81be
00000100: 0e26 5d3d 81bc 24bd fda9 26be 9293 c0bd
00000110: eee1 6439 6ced 8e3e c079 843c 02f9 8a3d
00000120: c336 9b3e 62c7 b3bd 1f1b c1bd 1aec 553e
00000130: 9530 ce3d b716 a0bc 02e7 0dbe 64c7 813b
00000140: fb2e 4ebd 9038 f83b 0600 713e a905 d8bd
00000150: e3ed b5bd a4d5 66be 1194 d63d 0fd6 e63d
00000160: a27e 793c 06ed 0a3d 1db3 65bc d252 a5bb
00000170: 5972 163a cda1 c1bc f459 5e39 2920 853c
00000180: 2b46 753e 3088 c5be 840f e7bd 205f a7bd
00000190: e9e5 ccbb aef5 b83d 158d 90bd 43d6 1e3e
000001a0: f2d6 70be 1e01 b6be 76c5 a3be 5830 4d3e
000001b0: 64cd 43be 8451 223e 3ea8 7b3e 4699 92be
000001c0: 1705 83bd 3d3d 7dbe 89ea 91be fb8b 9ebc
000001d0: e510 43be 53d3 513c aef0 b23e 04b9 1b3e
000001e0: 062b b33e 760d fdbd d81d 99be f091 a93e
000001f0: 0712 033e 58d7 c73e d861 83be 3d58 463d
00000200: a60d 4bbd 2a01 53be fc6e 95bd 7d6f 26bc
00000210: 24de 983e 5349 0bbc bab0 bd3d 602c a83e
00000220: 36fa 92bd 7748 dbbd 25de 8d3e 3305 be3d
00000230: eb06 39bc ded3 04be c32a 8a3b 68d5 58bd
00000240: f6fd 373c 36ab 603e 8c4f dbbd ff3d dcbd
00000250: c5dd 55be 1e91 bc3d 4142 e43d b32d 3d3b
00000260: c7f1 a63c c42f 9abc 634d 9abb 6dd4 873b
00000270: 7e91 f0bc 2aa7 28ba 3550 a43c 1a73 5b3e
00000280: 7093 c9be b07c d7bd 950b 51bd 1381 2cbb
00000290: b259 5b3c 9101 abbd 2a9d 2a3e d816 72be
000002a0: e37a a7be 5e7c 8abe d247 283e 797c 0ebe
000002b0: 5e09 473e 8fd0 9d3d b596 b3be 9344 84bc
000002c0: fef4 90be a416 65be 102a a0bc a96f 41be
000002d0: a318 83bd 4940 ca3e 4d8b f63d a17b 923e
000002e0: 2ee4 dfbd dd62 8fbe 6e70 a83e 6913 1b3e
000002f0: 7c5f a33e 60fd 87be dca1 1b3d 5611 33bd
00000300: 9e91 87be 493a 14bd 77c5 4dbc 750d a23e
00000310: 2f82 32bd 5fef fd3d 7b6a b83e 29c4 1cbd
00000320: 6f6b f9bd 76d7 b93e bdee 953d 54db 123a
00000330: 0843 efbd f0c9 a7bb cbda 2bbd 18b8 843b
00000340: 32ec 483e 91a3 babd 00ee ffbd f03e 49be
00000350: d13b 5f3d 3199 cb3d 19f7 81bc 58b4 a23b
00000360: bdea 9fbc cad0 b7bb d4b0 d83b 06b1 1cbd
00000370: c7f0 f8ba 0fcd d83c b65a 413e 8edc ccbe
00000380: 1a59 bfbd 1219 6ebc dfd2 c0bc 48c2 b6bd
00000390: 5359 ddbd 495f 493e 6372 70be 8fe9 8dbe
000003a0: 826b 47be 28e8 f23d 3bb9 9abd 98ff 433e
000003b0: 82bf 4bbe cb13 d8be e22d 633d c7e7 96be
000003c0: 194f 0cbe fe19 58bd 8f68 23be 7d7f 36be
000003d0: f9ca 033f a805 083d c95f 4f3e 3b50 ebbd
000003e0: 9fec 8fbe 1d43 8f3e 44ff 433e 30ed 823e
000003f0: 56a9 95be 72a9 c03c 6bbf 24bd 7a42 adbe
-0.25424504 0.06252756 -0.024131835 -0.14299017 -0.11437752 0.0014849821 0.25665578 0.034341305
0.046254016 0.29000616 -0.099319875 -0.0885193 0.16226526 0.08247839 -0.01526094 -0.13878033
0.0015404269 -0.043178473 -0.00035739382 0.23152752 -0.0990158 -0.08912821 -0.23184954 0.11017948
0.10035583 0.024971245 0.043766875 -0.012723701 -0.0042818063 -0.0025081947 -0.01859988 -0.00032123702
0.013203542 0.2496845 -0.3639123 -0.11510153 -0.10177075 -0.017207967 0.1421509 -0.059010573
0.15239616 -0.21594949 -0.3475498 -0.35840064 0.212979 -0.22566414 0.116790615 0.34102955
-0.23770969 -0.08494191 -0.20149864 -0.29551226 -0.020019561 -0.18507734 0.0627986 0.32873976
0.1547411 0.410625 -0.1060813 -0.3367707 0.32159004 0.099514075 0.44847646 -0.2527578
0.05399137 -0.040218834 -0.16275783 -0.09403147 0.0002182794 0.27915514 0.016171336 0.06785776
0.30315217 -0.08778264 -0.09429001 0.20890847 0.1006786 -0.019542081 -0.13857654 0.003960537
-0.050337773 0.007575102 0.23535165 -0.105479546 -0.08883264 -0.22542435 0.1047746 0.11271297
0.0152279455 0.03391745 -0.014019755 -0.0050452733 0.0005739085 -0.023636723 0.0002120508 0.016250687
0.23952548 -0.38580465 -0.11282256 -0.081724405 -0.0062529934 0.09031235 -0.07058159 0.15511422
-0.23519495 -0.35547727 -0.31986588 0.20037973 -0.19121319 0.15851408 0.24575898 -0.28632563
-0.06397455 -0.24730392 -0.2849925 -0.019353857 -0.19049414 0.012806731 0.3494925 0.15207297
0.34993762 -0.12356083 -0.2990558 0.33119154 0.12799846 0.39031482 -0.25660586 0.048423994
-0.049573563 -0.20605913 -0.07296559 -0.010158417 0.2985698 -0.008501369 0.092622235 0.32846355
-0.0717663 -0.10707181 0.27708545 0.092783354 -0.011293153 -0.12971446 0.0042165234 -0.052937895
0.011229983 0.21940312 -0.10708532 -0.10754012 -0.2088538 0.092073664 0.111454494 0.002886635
0.02037896 -0.018821605 -0.0047089322 0.004145196 -0.029366251 -0.0006433601 0.020057777 0.21430627
-0.39370298 -0.10521829 -0.051036436 -0.0026322051 0.013388084 -0.08349908 0.16661516 -0.23641527
-0.32710943 -0.2704801 0.16433647 -0.1391467 0.19437167 0.07705795 -0.35075918 -0.01614598
-0.28311914 -0.22371918 -0.019551307 -0.18890251 -0.064011835 0.3950217 0.12038288 0.28609946
-0.10932194 -0.28005114 0.32898277 0.15144123 0.31908786 -0.26560497 0.037996158 -0.043717705
-0.26478285 -0.036188398 -0.012559286 0.31650892 -0.043581184 0.12399172 0.36018738 -0.03827301
-0.121786945 0.36297196 0.07320926 0.00056021404 -0.11682707 -0.0051205084 -0.041956704 0.004050266
0.19621351 -0.09113229 -0.12496567 -0.19652915 0.054500405 0.09941328 -0.015864896 0.0049653463
-0.019521112 -0.0056096064 0.0066128764 -0.03825476 -0.0018992656 0.026464967 0.1888226 -0.4001202
-0.09343167 -0.014532344 -0.023538051 -0.08923775 -0.10808053 0.19665255 -0.23481135 -0.27717254
-0.19474605 0.118606865 -0.07554861 0.1914047 -0.19897273 -0.422026 0.05546368 -0.29473707
-0.13702048 -0.052759163 -0.15957855 -0.1782207 0.51481587 0.03320852 0.20251383 -0.11489912
-0.28110215 0.2798089 0.19140345 0.25571585 -0.29230756 0.023518298 -0.040221613 -0.3383978

betas f4 [100, 10]
00000000: 5149 9d3e 7672 993e cc45 d9be 201c 88be
00000010: 8081 0a3c fe00 d9be 2802 643d f8c9 05bf
00000020: 3246 06bf f611 843d 5149 9d3e 7672 993e
00000030: cc45 d9be 201c 88be 8081 0a3c fe00 d9be
00000040: 2802 643d f8c9 05bf 3246 06bf f611 843d
00000050: 5149 9d3e 7672 993e cc45 d9be 201c 88be
00000060: 8081 0a3c fe00 d9be 2802 643d f8c9 05bf
00000070: 3246 06bf f611 843d 5149 9d3e 7672 993e
00000080: cc45 d9be 201c 88be 8081 0a3c fe00 d9be
00000090: 2802 643d f8c9 05bf 3246 06bf f611 843d
000000a0: 5149 9d3e 7672 993e cc45 d9be 201c 88be
000000b0: 8081 0a3c fe00 d9be 2802 643d f8c9 05bf
000000c0: 3246 06bf f611 843d 5149 9d3e 7672 993e
000000d0: cc45 d9be 201c 88be 8081 0a3c fe00 d9be
000000e0: 2802 643d f8c9 05bf 3246 06bf f611 843d
000000f0: 5149 9d3e 7672 993e cc45 d9be 201c 88be
00000100: 8081 0a3c fe00 d9be 2802 643d f8c9 05bf
00000110: 3246 06bf f611 843d 5149 9d3e 7672 993e
00000120: cc45 d9be 201c 88be 8081 0a3c fe00 d9be
00000130: 2802 643d f8c9 05bf 3246 06bf f611 843d
00000140: 5149 9d3e 7672 993e cc45 d9be 201c 88be
00000150: 8081 0a3c fe00 d9be 2802 643d f8c9 05bf
00000160: 3246 06bf f611 843d 5149 9d3e 7672 993e
00000170: cc45 d9be 201c 88be 8081 0a3c fe00 d9be
00000180: 2802 643d f8c9 05bf 3246 06bf f611 843d
00000190: 5149 9d3e 7672 993e cc45 d9be 201c 88be
000001a0: 8081 0a3c fe00 d9be 2802 643d f8c9 05bf
000001b0: 3246 06bf f611 843d 5149 9d3e 7672 993e
000001c0: cc45 d9be 201c 88be 8081 0a3c fe00 d9be
000001d0: 2802 643d f8c9 05bf 3246 06bf f611 843d
000001e0: 5149 9d3e 7672 993e cc45 d9be 201c 88be
000001f0: 8081 0a3c fe00 d9be 2802 643d f8c9 05bf
00000200: 3246 06bf f611 843d 5149 9d3e 7672 993e
00000210: cc45 d9be 201c 88be 8081 0a3c fe00 d9be
00000220: 2802 643d f8c9 05bf 3246 06bf f611 843d
00000230: 5149 9d3e 7672 993e cc45 d9be 201c 88be
00000240: 8081 0a3c fe00 d9be 2802 643d f8c9 05bf
00000250: 3246 06bf f611 843d 5149 9d3e 7672 993e
00000260: cc45 d9be 201c 88be 8081 0a3c fe00 d9be
00000270: 2802 643d f8c9 05bf 3246 06bf f611 843d
00000280: 5149 9d3e 7672 993e cc45 d9be 201c 88be
00000290: 8081 0a3c fe00 d9be 2802 643d f8c9 05bf
000002a0: 3246 06bf f611 843d 5149 9d3e 7672 993e
000002b0: cc45 d9be 201c 88be 8081 0a3c fe00 d9be
000002c0: 2802 643d f8c9 05bf 3246 06bf f611 843d
000002d0: 5149 9d3e 7672 993e cc45 d9be 201c 88be
000002e0: 8081 0a3c fe00 d9be 2802 643d f8c9 05bf
000002f0: 3246 06bf f611 843d 5149 9d3e 7672 993e
00000300: cc45 d9be 201c 88be 8081 0a3c fe00 d9be
00000310: 2802 643d f8c9 05bf 3246 06bf f611 843d
00000320: 5149 9d3e 7672 993e cc45 d9be 201c 88be
00000330: 8081 0a3c fe00 d9be 2802 643d f8c9 05bf
00000340: 3246 06bf f611 843d 5149 9d3e 7672 993e
00000350: cc45 d9be 201c 88be 8081 0a3c fe00 d9be
00000360: 2802 643d f8c9 05bf 3246 06bf f611 843d
00000370: 5149 9d3e 7672 993e cc45 d9be 201c 88be
00000380: 8081 0a3c fe00 d9be 2802 643d f8c9 05bf
00000390: 3246 06bf f611 843d 5149 9d3e 7672 993e
000003a0: cc45 d9be 201c 88be 8081 0a3c fe00 d9be
000003b0: 2802 643d f8c9 05bf 3246 06bf f611 843d
000003c0: 5149 9d3e 7672 993e cc45 d9be 201c 88be
000003d0: 8081 0a3c fe00 d9be 2802 643d f8c9 05bf
000003e0: 3246 06bf f611 843d 5149 9d3e 7672 993e
000003f0: cc45 d9be 201c 88be 8081 0a3c fe00 d9be
0.30719998 0.2997014 -0.42436063 -0.26583958 0.008453727 -0.4238357 0.05566612 -0.52261305
-0.5245086 0.06448738 0.30719998 0.2997014 -0.42436063 -0.26583958 0.008453727 -0.4238357
0.05566612 -0.52261305 -0.5245086 0.06448738 0.30719998 0.2997014 -0.42436063 -0.26583958
0.008453727 -0.4238357 0.05566612 -0.52261305 -0.5245086 0.06448738 0.30719998 0.2997014
-0.42436063 -0.26583958 0.008453727 -0.4238357 0.05566612 -0.52261305 -0.5245086 0.06448738
0.30719998 0.2997014 -0.42436063 -0.26583958 0.008453727 -0.4238357 0.05566612 -0.52261305
-0.5245086 0.06448738 0.30719998 0.2997014 -0.42436063 -0.26583958 0.008453727 -0.4238357
0.05566612 -0.52261305 -0.5245086 0.06448738 0.30719998 0.2997014 -0.42436063 -0.26583958
0.008453727 -0.4238357 0.05566612 -0.52261305 -0.5245086 0.06448738 0.30719998 0.2997014
-0.42436063 -0.26583958 0.008453727 -0.4238357 0.05566612 -0.52261305 -0.5245086 0.06448738
0.30719998 0.2997014 -0.42436063 -0.26583958 0.008453727 -0.4238357 0.05566612 -0.52261305
-0.5245086 0.06448738 0.30719998 0.2997014 -0.42436063 -0.26583958 0.008453727 -0.4238357
0.05566612 -0.52261305 -0.5245086 0.06448738 0.30719998 0.2997014 -0.42436063 -0.26583958
0.008453727 -0.4238357 0.05566612 -0.52261305 -0.5245086 0.06448738 0.30719998 0.2997014
-0.42436063 -0.26583958 0.008453727 -0.4238357 0.05566612 -0.52261305 -0.5245086 0.06448738
0.30719998 0.2997014 -0.42436063 -0.26583958 0.008453727 -0.4238357 0.05566612 -0.52261305
-0.5245086 0.06448738 0.30719998 0.2997014 -0.42436063 -0.26583958 0.008453727 -0.4238357
0.05566612 -0.52261305 -0.5245086 0.06448738 0.30719998 0.2997014 -0.42436063 -0.26583958
0.008453727 -0.4238357 0.05566612 -0.52261305 -0.5245086 0.06448738 0.30719998 0.2997014
-0.42436063 -0.26583958 0.008453727 -0.4238357 0.05566612 -0.52261305 -0.5245086 0.06448738
0.30719998 0.2997014 -0.42436063 -0.26583958 0.008453727 -0.4238357 0.05566612 -0.52261305
-0.5245086 0.06448738 0.30719998 0.2997014 -0.42436063 -0.26583958 0.008453727 -0.4238357
0.05566612 -0.52261305 -0.5245086 0.06448738 0.30719998 0.2997014 -0.42436063 -0.26583958
0.008453727 -0.4238357 0.05566612 -0.52261305 -0.5245086 0.06448738 0.30719998 0.2997014
-0.42436063 -0.26583958 0.008453727 -0.4238357 0.05566612 -0.52261305 -0.5245086 0.06448738
0.30719998 0.2997014 -0.42436063 -0.26583958 0.008453727 -0.4238357 0.05566612 -0.52261305
-0.5245086 0.06448738 0.30719998 0.2997014 -0.42436063 -0.26583958 0.008453727 -0.4238357
0.05566612 -0.52261305 -0.5245086 0.06448738 0.30719998 0.2997014 -0.42436063 -0.26583958
0.008453727 -0.4238357 0.05566612 -0.52261305 -0.5245086 0.06448738 0.30719998 0.2997014
-0.42436063 -0.26583958 0.008453727 -0.4238357 0.05566612 -0.52261305 -0.5245086 0.06448738
0.30719998 0.2997014 -0.42436063 -0.26583958 0.008453727 -0.4238357 0.05566612 -0.52261305
-0.5245086 0.06448738 0.30719998 0.2997014 -0.42436063 -0.26583958 0.008453727 -0.4238357

global_orient f4 [100, 3]
00000000: f43f 3e40 c5a3 53bd 9d03 fcbe 4410 3d40
00000010: 0ddf 59bd 7547 06bf 7add 3b40 a10a 65bd
00000020: 44e7 11bf 17f8 3a40 9685 38bd 3efa 1abf
00000030: 1673 3940 3d16 37bd d387 29bf dbad 3640
00000040: 63a9 02bd f221 31bf 462b 3440 2eb0 9fbb
00000050: 4852 32bf 7507 3240 3bcd d23c 291d 32bf
00000060: 986e 3040 ba17 043d 54a3 35bf 648f 2e40
00000070: b0d3 833c 9b3b 3fbf b560 2c40 705d 333b
00000080: f840 4abf 064f 2a40 c622 bfbc 482d 52bf
00000090: 2758 2940 7c3b b1bc 1de8 52bf 5a75 2940
000000a0: 6558 93bc ef4d 4cbf 89fb 2940 044b 1abc
000000b0: 42bd 40bf fe33 2b40 914a 09bc ed0c 36bf
000000c0: 86c0 2d40 9a39 6eb8 38c5 25bf 0abf 3040
000000d0: 4bf2 f83b 3cea 14bf af17 3340 47cc 733c
000000e0: 0997 04bf 5587 3540 50b5 4b3c 2432 f6be
000000f0: a8d4 3640 fded 663b 1cac ddbe 5dc8 3640
00000100: f15b e3ba b7fb d8be c913 3740 07a6 c43a
00000110: 52a6 d8be 8514 3840 89ed a93c 902a ccbe
00000120: 958a 3940 7230 613d 1981 c2be c829 3940
00000130: 7e2f c73d dbac adbe 9397 3740 fd5f fc3d
00000140: c872 82be 8b4c 3540 757e 183e 259b 37be
00000150: e993 3340 6590 343e 37c5 1dbe 38f2 3240
00000160: 3f64 4a3e dfb3 2bbe 08ae 3140 cc5b 783e
00000170: be84 5cbe 6948 3040 016a 943e 5512 84be
00000180: 08ae 2f40 0517 a03e 1357 90be a6d5 2f40
00000190: d0f1 9b3e 9a94 90be e0e7 2f40 1aac 8a3e
000001a0: a294 9abe 109d 3040 04f2 653e a69c a4be
000001b0: f1dd 3140 9982 423e f6af a7be 6a15 3440
000001c0: f933 123e d257 b0be c774 3640 dac4 d23d
000001d0: a9c2 afbe 9b24 3840 8275 723d ee78 bbbe
000001e0: 2d1c 3940 477b ef3c 0eb3 a3be 1b91 3940
000001f0: ef33 ea3c 2a48 81be ce55 3a40 276e 3b3d
00000200: b9c0 3abe c55e 3a40 3324 6f3d 69b7 d8bd
00000210: 0cb4 3940 668f 913d 3586 3ebc f648 3840
00000220: 9edc 9b3d d74d ad3d 4229 3640 e156 ad3d
00000230: a74d 3e3e 47e1 3340 d46e a93d aec8 9e3e
00000240: 261c 3240 1bff ba3d cb76 f83e c757 3040
00000250: fc9d e43d 95d3 373f 9141 2d40 4310 173e
00000260: 2902 813f 73a1 2440 c899 293e 0cbf af3f
00000270: 5f59 1c40 b479 2c3e de0c d13f 43d8 0f40
00000280: fbf4 273e 80f9 f53f c3d0 0040 4bdd 323e
00000290: af5e 0d40 2e3d e33f 0b73 503e 4170 1d40
000002a0: 598a b43f c24a 853e 6ac8 2e40 186b 7fbf
000002b0: e35c 9ebe 48ae 3cc0 262e febe fac8 acbe
000002c0: 8d4a 40c0 ff04 383d cafe a0be 9706 40c0
000002d0: d192 123f 5b17 9fbe 384c 3ac0 7eee 683f
000002e0: 6079 aabe 03db 33c0 7d5d 903f 33c6 adbe
000002f0: b81c 2ec0 da00 a43f 1424 abbe f1d3 29c0
00000300: d1fa be3f 6beb 9fbe 856e 22c0 5e5c d93f
00000310: a3be a7be 6ce3 19c0 f1ee f83f 15d3 9fbe
00000320: 62dd 0dc0 ec1b 0d40 6aa7 92be 21dd f8bf
00000330: 1875 1c40 b37a 75be 763e cdbf f64c 2940
00000340: c18d 3fbe ffed 9abf b06e 3240 cfd8 04be
00000350: 8922 4bbf c306 3740 a7da 5ebd 5a16 93be
00000360: 8976 3640 a8d9 68bb 6938 fb3c 8086 3440
00000370: dbdf f03c f672 923e 4e3f 3340 bb93 4c3d
00000380: d20a 123f abb3 3040 9b95 fc3c a328 4b3f
00000390: 0154 3140 e168 043d 3a61 723f 08eb 3140
000003a0: 3ec7 243d fc7b 823f 0bf6 3040 c82a 943d
000003b0: 3e1c 843f 8a92 3140 89d8 a43d 61f7 753f
000003c0: 74b0 3240 2783 ca3d 00f6 5b3f 4b42 3440
000003d0: e364 d33d 799b 383f 7405 3640 27a1 da3d
000003e0: 3a98 183f 80f6 3540 97f2 cf3d ffde fb3e
000003f0: 1c02 3840 5782 c73d 1aae c63e 25b4 3940
2.9726534 -0.051669855 -0.49221507 2.9541178 -0.053191233 -0.52452785 2.9353929 -0.05591834
-0.5699351 2.9213922 -0.045049272 -0.6053809 2.8976493 -0.044698942 -0.66222876 2.8543613
-0.03189982 -0.6919242 2.8151412 -0.004873297 -0.696568 2.7817051 0.025732627 -0.69575745
2.75675 0.03224919 -0.70952344 2.7275019 0.016092151 -0.74700326 2.6934025 0.0027368926
-0.79005384 2.6610732 -0.023332011 -0.82100344 2.6460054 -0.02163481 -0.82385427 2.6477876
-0.017986486 -0.7980642 2.6559775 -0.009417299 -0.75288785 2.6750484 -0.008379594 -0.71113473
2.7148757 -5.6797267e-05 -0.64754057 2.76166 0.007597243 -0.58169913 2.7983205 0.0148802465
-0.5179296 2.836385 0.012433365 -0.4808513 2.8567295 0.0035237067 -0.43295372 2.8559792
-0.0017346126 -0.42379543 2.8605826 0.0015003093 -0.42314392 2.8762524 0.020743148 -0.39876223
2.8990834 0.05497784 -0.3798912 2.8931751 0.09725855 -0.3392094 2.8686264 0.12322996
-0.25478196 2.8327968 0.1489199 -0.17930277 2.8059027 0.17633207 -0.15407263 2.7960339
0.19764803 -0.16767834 2.776247 0.24253768 -0.21535012 2.7544196 0.28987125 -0.25795236
2.744997 0.31267563 -0.28191432 2.747415 0.30457926 -0.28238374 2.7485275 0.27084428
-0.30191523 2.7595863 0.22455603 -0.32150763 2.7791712 0.18995132 -0.32751435 2.813807
0.14277638 -0.34442002 2.8508775 0.10291453 -0.343282 2.8772342 0.059194095 -0.366157
2.8923447 0.029233588 -0.31972545 2.8994815 0.028589217 -0.2525037 2.911487 0.045759346
-0.1823758 2.9120343 0.05838413 -0.10581858 2.9016142 0.07107429 -0.011628677 2.8794532
0.07610439 0.084621124 2.8462682 0.084638365 0.1858431 2.8106248 0.08273092 0.3101248
2.782968 0.09130689 0.48528132 2.7553575 0.11162946 0.71807224 2.7071269 0.14752297
1.0078784 2.572354 0.16562569 1.3730178 2.4429548 0.16843301 1.6332052 2.2475746
0.16402046 1.9216766 2.0127418 0.17467229 2.208904 1.7753046 0.20356385 2.4599764
1.410472 0.26033598 2.7309823 -0.9977279 -0.30930242 -2.9481373 -0.49644583 -0.33747083
-3.0045502 0.04492664 -0.3144439 -3.0004022 0.57255274 -0.31072506 -2.910902 0.9098891
-0.33295727 -2.8102424 1.127853 -0.33940277 -2.7205029 1.281276 -0.33425963 -2.6535609
1.4920293 -0.31234297 -2.5379956 1.6981313 -0.32762632 -2.4045057 1.9447919 -0.3121573
-2.2166371 2.2048292 -0.28643352 -1.9442483 2.4446468 -0.23972587 -1.6034687 2.6453223
-0.18706419 -1.2103881 2.7880058 -0.12973331 -0.7934957 2.8597877 -0.054407742 -0.2872799
2.8509848 -0.0035530124 0.030666547 2.8207092 0.029403618 0.28603333 2.8007388 0.049945574
0.5704776 2.760966 0.030833056 0.7935888 2.7707522 0.032326583 0.94679606 2.7799702
0.040229075 1.0194087 2.7650173 0.072347224 1.0321119 2.774569 0.08049113 0.96080595
2.7920198 0.098882966 0.8592224 2.8165462 0.10321977 0.7211223 2.8440828 0.106752686
0.5960728 2.8431702 0.10153692 0.4919357 2.8751287 0.09741657 0.38804704 2.9016201

transl f4 [100, 3]
00000000: 3c57 f8be 94d6 6b3f d50a f540 4f9b f5be
00000010: ec9e 693f c5cf f440 9c04 f4be bc88 6a3f
00000020: 8bbb f540 373f f1be 0abb 6a3f b67c f440
00000030: 1cae e7be ceb8 6b3f 1e5d f240 1e51 e1be
00000040: e7e8 703f a102 f340 eaa2 d7be 70fa 743f
00000050: 62f2 f040 f4ba d1be 5a2c 7d3f ad88 f140
00000060: 2120 c7be b0ed 823f d1dc f040 4482 bfbe
00000070: 15ff 863f 55d2 ef40 26da b8be 54ec 8a3f
00000080: d8bd ef40 58ee b0be 7eb0 8f3f a867 f140
00000090: ca99 a7be d094 913f 28f3 f140 c650 a1be
000000a0: fc2d 923f 886f f240 20db 99be 9aed 923f
000000b0: 8140 f340 7681 91be 7abb 923f b3a2 f340
000000c0: 9e93 85be 99ca 913f 61bf f140 c4d1 6dbe
000000d0: b6b6 913f fe96 f340 4484 58be 51ba 913f
000000e0: 944c f540 f4a2 3dbe 8837 913f 0cfb f640
000000f0: 69cc 23be fdc1 903f 2a4e f840 17ac d0bd
00000100: cb78 8e3f a644 f940 e51e 8abd 9ac3 8e3f
00000110: 44f8 fa40 24df d4bc f896 8e3f 9f41 f840
00000120: fbab 323c 91c3 8e3f ab0e f540 3460 4b3d
00000130: abfe 903f 9a15 f840 d8ae a83d 941a 943f
00000140: a746 fa40 9f1b 0a3e 5a85 973f e82d fa40
00000150: 2fb3 143e b84a 993f 5b04 fc40 d3a0 1b3e
00000160: 2815 9a3f 2864 fc40 af34 2c3e 775a 993f
00000170: 15c4 f940 c52f 253e 785d 973f f5b7 f440
00000180: 7770 1f3e c283 973f 1622 f540 84c5 0d3e
00000190: 7b8f 973f 4a51 f740 51f9 f33d 7c9c 963f
000001a0: 14c3 f640 a250 ad3d fa33 953f 5b33 f640
000001b0: 761d 123d 2468 933f 8931 f540 94d9 9dbc
000001c0: 0488 923f 20bf f540 6e39 a4bd d23f 913f
000001d0: c437 f340 dceb 0ebe ff84 943f 6131 f540
000001e0: 4fd0 3fbe cb15 983f b982 f340 4d24 8cbe
000001f0: 7b73 9c3f 7238 f540 884a 9ebe 54f3 9d3f
00000200: 63db f440 0622 abbe 49c5 9f3f 431c f740
00000210: 4819 b3be 768d a03f 0fde f740 5ee6 b7be
00000220: 52ec a03f b46e f840 85ab b7be 76d4 a03f
00000230: 46b6 f940 32aa afbe 5a02 a03f 4530 f940
00000240: 37c0 a3be 7cdb 9d3f b863 f740 0ef5 93be
00000250: f179 9c3f 77a3 f840 20b3 7abe d406 993f
00000260: 2b10 f640 b62c 2abe eb80 943f 52a0 f440
00000270: 4ab8 e0bd 7817 913f 1e4a f440 d1a7 90bd
00000280: 42e2 8e3f 8d6b f640 6c3f cfbc 9e20 8c3f
00000290: c729 f640 b844 633c de21 8a3f e7b5 f640
000002a0: c627 673d a149 893f 3e11 f940 8213 c93d
000002b0: 3a47 883f d3e4 fc40 0ce1 123e 8a88 863f
000002c0: 012e fd40 58f6 4f3e 48bf 853f dcaf fd40
000002d0: 1330 883e 5c2e 863f da48 fb40 66d3 ba3e
000002e0: 2d39 843f 4471 f640 e0bc dd3e f858 833f
000002f0: 273a f440 0479 f83e fe66 823f 0ab4 f240
00000300: fafc 083f 2c90 813f 4506 f340 d2c1 153f
00000310: 276b 833f 4570 f640 82ae 1c3f cd6a 843f
00000320: a961 f940 4bae 253f 6d7c 863f 7c39 fd40
00000330: aaef 283f c4cf 873f 5e74 ff40 38fc 2c3f
00000340: d445 873f 3c17 fe40 fd74 303f 70bc 873f
00000350: 1ae9 fd40 5cb2 3c3f 1f5f 893f a6d8 fc40
00000360: 5481 443f 19b9 8c3f 8162 fb40 b8c3 4f3f
00000370: 8f44 923f 9973 fd40 d15a 5c3f b6d8 983f
00000380: 0c72 0041 4af6 5d3f cecf 9d3f e809 0041
00000390: 8bf4 623f 8933 a03f 88b0 0041 95e7 643f
000003a0: 6df4 a03f 8b95 ff40 3ef0 623f d2b0 a33f
000003b0: 4c5b 0041 4093 633f 84e9 a43f 6a20 0141
000003c0: 5526 633f fcea a33f 9495 0041 57aa 623f
000003d0: 6e6d a43f a56a 0141 0dfd 643f 936c a63f
000003e0: 20b2 0241 bae6 623f 7206 a83f 4a39 0241
000003f0: ff69 653f 4a13 ac3f cbd8 0241 3be2 653f
-0.48504055 0.92124295 7.6575723 -0.47970054 0.9125812 7.6503625 -0.47659767 0.9161489
7.6791434 -0.47118542 0.9169165 7.6402235 -0.45250022 0.92078865 7.573867 -0.440072
0.9410538 7.594071 -0.4211648 0.9569464 7.5295877 -0.40962946 0.988958 7.547934
-0.388917 1.0228786 7.526955 -0.37404072 1.0546595 7.4944253 -0.36103934 1.0853372
7.4919243 -0.34556842 1.1225736 7.5439034 -0.3273452 1.1373539 7.560932 -0.31506938
1.1420283 7.5761147 -0.30049992 1.147876 7.601624 -0.28419083 1.1463463 7.6136107
-0.26089185 1.1389953 7.5546117 -0.2322455 1.1383884 7.6121817 -0.21144205 1.1384984
7.665598 -0.18519193 1.1345072 7.7181454 -0.15995945 1.13092 7.7595415 -0.101890735
1.1130613 7.78963 -0.06744174 1.1153443 7.842806 -0.025985308 1.1139822 7.7580104
0.010905261 1.1153432 7.6580405 0.049652293 1.1327718 7.752637 0.08236474 1.1570611
7.8211246 0.13487099 1.1837571 7.818104 0.14521478 1.1975927 7.8755317 0.15198068
1.2037706 7.887226 0.16816972 1.1980733 7.805186 0.16131504 1.1825399 7.6474557
0.15570246 1.1837084 7.660411 0.13844877 1.1840662 7.728673 0.11912788 1.1766505
7.7113132 0.08462645 1.1656487 7.693769 0.035672627 1.1516156 7.662297 -0.019268788
1.1447759 7.6795807 -0.08018766 1.1347601 7.6005573 -0.1395716 1.1603087 7.6622777
-0.18731807 1.1881651 7.6097074 -0.27371445 1.2222742 7.6631403 -0.30916238 1.2339883
7.6517806 -0.33424395 1.2482082 7.7222 -0.34980226 1.254317 7.745857 -0.35917944
1.2572119 7.7635136 -0.35873047 1.2564838 7.8035 -0.34309536 1.2500718 7.7871423
-0.31982586 1.2332606 7.7309227 -0.288979 1.2224714 7.769954 -0.24482393 1.1955209
7.6894736 -0.16618618 1.1601843 7.6445704 -0.1097265 1.1335287 7.6340475 -0.070632584
1.1162798 7.7006288 -0.025298797 1.0947454 7.6926 0.013871364 1.0791585 7.709705
0.056434415 1.0725595 7.7833548 0.09818174 1.0646737 7.9029326 0.14343661 1.0510418
7.9118657 0.20308816 1.0449 7.927717 0.26599178 1.0482898 7.852643 0.3648941
1.0329949 7.7013264 0.43308163 1.0261526 7.6320987 0.48529828 1.0187681 7.5844774
0.5351101 1.0122123 7.5945153 0.5849887 1.0267075 7.701205 0.6120378 1.0345093
7.7931714 0.64719075 1.0506722 7.913267 0.659907 1.061028 7.982955 0.67572355
1.0568185 7.940336 0.6892851 1.0604382 7.934705 0.73709655 1.0732154 7.9014463
0.7675984 1.0993987 7.8557744 0.8115802 1.1427172 7.920361 0.86076075 1.1941135
8.027843 0.8670393 1.2329042 8.0024185 0.8865439 1.2515727 8.043098 0.89415866
1.2574593 7.9870048 0.8864783 1.2788336 8.022289 0.8889656 1.2883763 8.070414
0.88730365 1.2806087 8.036518 0.8854117 1.2845895 8.088536 0.89448625 1.3001884
8.168488 0.8863331 1.3126967 8.138987 0.8961486 1.3443387 8.177928 0.89798325
