KungFuAthleteBot/src/demo/gvhmr/jump/278/278.pt (torch, 462975 bytes, 27 tensors)

body_pose f4 [105, 63]
000000 bf 4c 6c 3e 15 2b de 3d e7 36 fc 3b 4e fa 25 3e
       0.23076151 0.10848061 0.0076969746 0.16208765
000010 f4 29 d7 bd e5 1b 2c bd 45 c0 70 3d ee 1d 6e 3c
       -0.10506049 -0.04201879 0.058777113 0.014533503
000020 97 30 19 3d c9 9d 8f bd de 85 24 be 15 d6 65 3c
       0.037399855 -0.07012517 -0.16066691 0.014028092
000030 20 aa 4f 3d 7e 95 52 3d 5d 1c 3d bd 18 04 c3 bd
       0.050699353 0.051412098 -0.046169627 -0.09522265
000040 a8 b7 3a bd 8b 87 9b bc b3 b7 16 be fa ce 20 3e
       -0.045585304 -0.01898553 -0.14718513 0.15703955
000050 87 ca 8a bd 62 e3 ff bd e5 dc 1e be e6 f0 47 3d
       -0.0677691 -0.12494542 -0.15513952 0.048813723
000060 ba c3 4d 3c e4 f8 0c 3d da 36 19 3c b4 ab 97 bc
       0.012558872 0.034417048 0.009351457 -0.018514492
000070 73 07 28 bc 37 67 a5 3b 1c 40 95 bc ca b4 f3 ba
       -0.010255682 0.0050477046 -0.018219046 -0.0018593308
000080 39 76 82 3d 4c 2a 06 3f c7 fe d7 bb 59 3c 36 be
       0.063702054 0.5240829 -0.006591651 -0.17796458
000090 64 a8 d3 be 9a 6b 04 bf 7e 19 ed 3e dd 8c 95 be
       -0.4133941 -0.51726687 0.46308511 -0.29209033
0000a0 c2 23 0a 3f 44 d7 0c bf dc 2d 90 3c 34 8b 50 3d
       0.5396081 -0.5501597 0.017599992 0.050914004
0000b0 02 fc ca 3c 30 ff 18 bf 1a 14 14 bf e9 7a 84 3e
       0.02477837 -0.59764385 -0.5784317 0.25875023
0000c0 f3 99 2d bf 39 f7 e3 3e ad 31 a8 be c0 f0 54 bf
       -0.6781303 0.44524553 -0.328504 -0.83179855
0000d0 95 e7 4c bf a7 e1 ac 3e 90 e7 70 bf 8a 9e 7a 3f
       -0.80040866 0.3376591 -0.94103336 0.9789816
0000e0 5e 16 aa be e2 b7 7f be bf 2f 49 be 9d f7 ee 3d
       -0.3322019 -0.2497249 -0.1964712 0.11668322
0000f0 51 46 0d bf 23 dd 61 3e 66 64 ce bd f9 b5 70 3e
       -0.5518542 0.22057013 -0.10077743 0.23506917
000100 ac f4 db 3d c9 6f 86 3b 5e ab 29 3e 35 8e da bd
       0.10740027 0.0041026813 0.16569278 -0.10671655
000110 f8 b4 31 bd 9b 8c 6f 3d a0 5b 7d 3c f6 36 1b 3d
       -0.043385476 0.0584837 0.01546374 0.03789421
000120 7f 19 9f bd ae 08 28 be 12 c8 68 3c e2 84 2b 3d
       -0.07768535 -0.16409561 0.014207857 0.041874774
000130 a6 a4 4c 3d 23 af 4a bd 29 e3 bf bd 34 9d 3b bd
       0.04996171 -0.04948343 -0.09369499 -0.045804217
000140 13 74 9d bc 59 94 12 be 04 0b 26 3e fd 16 8b bd
       -0.019220388 -0.14314403 0.1621514 -0.06791494
000150 55 a3 02 be 04 4b 1b be 45 62 57 3d 7f 3a e1 3b
       -0.12757619 -0.15165335 0.05258395 0.0068734284
000160 e3 d1 0d 3d 93 e6 3e 3c ef 53 92 bc 7e fd 29 bc
       0.03462399 0.011651653 -0.017862288 -0.010375379
000170 d2 13 88 3b 0a e6 8a bc d8 20 10 bb f1 ca 84 3d
       0.0041527534 -0.016955394 -0.0021992233 0.064840205
000180 d1 d4 07 3f 00 d9 8f bb 66 f1 38 be c7 e6 d6 be
       0.5305911 -0.004389882 -0.18060836 -0.41972944
000190 69 cf 02 bf 7a bc f1 3e 4c 81 99 be 46 84 08 3f
       -0.5109773 0.4721411 -0.29981458 0.53326833
0001a0 8a 9c 0f bf df 4f bb 3c 58 c6 4d 3d 59 c3 b7 3c
       -0.56098235 0.022865234 0.050237983 0.022432016
0001b0 25 37 1a bf 00 db 13 bf 10 eb 84 3e a1 d1 2d bf
       -0.60240394 -0.5775604 0.25960588 -0.67897993
0001c0 3f 89 e5 3e 23 4c a5 be 3d 03 55 bf 52 43 4e bf
       0.44831273 -0.3228465 -0.83208066 -0.8057147
0001d0 11 38 b3 3e bc 8b 72 bf ee 31 7a 3f bc 3e b0 be
       0.35003713 -0.9474447 0.97732437 -0.34422863
0001e0 42 a8 7b be 11 fb 4e be 06 fa e1 3d cc 70 0f bf
       -0.24575904 -0.20212962 0.11034016 -0.5603149
0001f0 5f a6 60 3e c7 c1 9b bd b5 b6 72 3e e3 c9 d9 3d
       0.21938466 -0.076053195 0.2370251 0.1063421
000200 2a b7 19 3b 13 86 28 3e ee 47 db bd ef 91 3f bd
       0.0023455122 0.16457395 -0.10707079 -0.046770032
000210 ac e9 73 3d 98 2c 7d 3c 66 17 1e 3d b0 d0 a2 bd
       0.05954902 0.0154525265 0.038596533 -0.0794996
000220 a2 e6 2d be 46 bc 31 3c 49 d3 37 3d d6 c8 4b 3d
       -0.1698251 0.010848111 0.04487923 0.04975208
000230 30 86 4e bd fe 8e b8 bd cb 9a 3b bd 3c 1b 98 bc
       -0.05042094 -0.090116486 -0.04580192 -0.018567674
000240 e2 12 16 be 6f a6 27 3e 57 25 8b bd 17 f6 0e be
       -0.1465564 0.16372083 -0.067942314 -0.13961063
000250 58 c9 18 be cf 07 52 3d 70 22 89 3a 3f 18 0b 3d
       -0.14920557 0.051276978 0.0010462534 0.03395867
000260 4b 9a 61 3c 3f 0f 92 bc be 29 31 bc 1e f5 ad 3b
       0.0137696965 -0.017829536 -0.010813175 0.0053087613
000270 34 8b 83 bc 1a 84 ed ba 2a ae 87 3d 05 82 08 3f
       -0.016057588 -0.0018121034 0.06625016 0.53323394
000280 14 10 5a bb 02 33 3c be 7f bb d7 be b2 97 01 bf
       -0.0033273743 -0.18378833 -0.42135236 -0.50622094
000290 49 6c f2 3e 2d 3e 9b be 38 fc 06 3f 72 b8 10 bf
       0.4734824 -0.30320874 0.52728605 -0.5653144
0002a0 b5 ff c7 3c ca 30 51 3d 12 bf a3 3c f2 58 1b bf
       0.024413923 0.05107192 0.01998857 -0.60682595
0002b0 08 12 14 bf 3d 7a 83 3e 60 55 2e bf 34 d0 e6 3e
       -0.57840014 0.25679198 -0.6809902 0.4508072
0002c0 27 a8 a1 be 0b 8d 55 bf 1a 36 53 bf 8c 6c b9 3e
       -0.31573603 -0.8341834 -0.8250443 0.36215627
0002d0 a1 b0 75 bf 23 fb 7a 3f 9e 92 b4 be b7 cc 81 be
       -0.9597264 0.98039454 -0.3526811 -0.25351498
0002e0 c8 df 51 be fe a7 e5 3d 00 01 14 bf c3 50 5b 3e
       -0.20495522 0.112136826 -0.57814026 0.21417527
0002f0 d2 33 6c bd dc ce 70 3e 5f 7d d7 3d ec 99 47 ba
       -0.057666607 0.2351641 0.105219595 -0.00076141837
000300 2d 5d 28 3e eb 32 e6 bd 66 1a 50 bd f5 43 7e 3d
       0.16441794 -0.112401806 -0.050806426 0.062076528
000310 37 87 86 3c d5 05 19 3d 89 dc 9e bd c7 2d 31 be
       0.016421897 0.037359077 -0.077569075 -0.17302619
000320 b8 02 02 3c fc 22 29 3d a7 53 33 3d db 86 57 bd
       0.0079352185 0.04129313 0.04378095 -0.052618843
000330 b3 f4 bd bd a0 85 3e bd 47 9c 80 bc 56 1a 15 be
       -0.09275188 -0.046514153 -0.015699519 -0.14560828
000340 9b 26 21 3e df 4a 8e bd f4 bf 11 be 4e e8 15 be
       0.15737383 -0.06947874 -0.1423338 -0.14639398
000350 69 64 4c 3d 9d e3 c7 ba c6 be 07 3d a7 d3 85 3c
       0.049900446 -0.0015250329 0.03314092 0.016336275
000360 ad a6 8d bc e6 93 37 bc 14 d7 bd 3b 8a ba 73 bc
       -0.017291391 -0.011204695 0.0057934616 -0.014876017
000370 19 97 c8 ba 39 6e 88 3d 91 b7 0a 3f 46 17 02 bb
       -0.001530382 0.06661648 0.5418635 -0.0019850298
000380 3a aa 3d be b3 8c d8 be 38 39 00 bf ec 4a f2 3e
       -0.18521968 -0.42294845 -0.5008731 0.47322786
000390 38 02 9c be da 97 05 3f 73 9e 11 bf 07 26 bf 3c
       -0.30470443 0.5218483 -0.568824 0.023333563
0003a0 d5 ac 5c 3d e7 bf 9e 3c 11 64 1d bf db 75 13 bf
       0.053875763 0.019378616 -0.61480814 -0.5760171
0003b0 33 6d 84 3e 33 5c 2f bf d1 82 e6 3e 81 b4 a0 be
       0.25864562 -0.6850006 0.4502168 -0.31387714
0003c0 8a e8 56 bf f7 22 55 bf 3d ae bf 3e f1 43 79 bf
       -0.83948576 -0.8325648 0.3743762 -0.97369295
0003d0 af 1a 7c 3f 0d 74 b9 be 8c 54 86 be d4 6e 54 be
       0.98478216 -0.36221352 -0.2623638 -0.20745403
0003e0 79 95 e8 3d af c3 1a bf 4c eb 55 3e c8 b9 55 bd
       0.11356635 -0.6045484 0.2089054 -0.052179128
0003f0 6b 4b 6f 3e 23 00 d5 3d eb fe 9f 39 fc 65 26 3e
       0.23368613 0.10400417 0.00030516772 0.16249841

betas f4 [105, 10]
000000 f6 94 c7 3e 76 12 c0 bd 5a 86 f2 be 94 07 71 bf
       0.38980836 -0.09378521 -0.47368127 -0.9415219
000010 6e 2b 83 be 10 2f 0d be f1 bb d2 be ef 85 f0 be
       -0.25619072 -0.13787484 -0.41159013 -0.46977183
000020 cc 74 d3 be 76 03 8f 3d f6 94 c7 3e 76 12 c0 bd
       -0.41300046 0.06983082 0.38980836 -0.09378521
000030 5a 86 f2 be 94 07 71 bf 6e 2b 83 be 10 2f 0d be
       -0.47368127 -0.9415219 -0.25619072 -0.13787484
000040 f1 bb d2 be ef 85 f0 be cc 74 d3 be 76 03 8f 3d
       -0.41159013 -0.46977183 -0.41300046 0.06983082
000050 f6 94 c7 3e 76 12 c0 bd 5a 86 f2 be 94 07 71 bf
       0.38980836 -0.09378521 -0.47368127 -0.9415219
000060 6e 2b 83 be 10 2f 0d be f1 bb d2 be ef 85 f0 be
       -0.25619072 -0.13787484 -0.41159013 -0.46977183
000070 cc 74 d3 be 76 03 8f 3d f6 94 c7 3e 76 12 c0 bd
       -0.41300046 0.06983082 0.38980836 -0.09378521
000080 5a 86 f2 be 94 07 71 bf 6e 2b 83 be 10 2f 0d be
       -0.47368127 -0.9415219 -0.25619072 -0.13787484
000090 f1 bb d2 be ef 85 f0 be cc 74 d3 be 76 03 8f 3d
       -0.41159013 -0.46977183 -0.41300046 0.06983082
0000a0 f6 94 c7 3e 76 12 c0 bd 5a 86 f2 be 94 07 71 bf
       0.38980836 -0.09378521 -0.47368127 -0.9415219
0000b0 6e 2b 83 be 10 2f 0d be f1 bb d2 be ef 85 f0 be
       -0.25619072 -0.13787484 -0.41159013 -0.46977183
0000c0 cc 74 d3 be 76 03 8f 3d f6 94 c7 3e 76 12 c0 bd
       -0.41300046 0.06983082 0.38980836 -0.09378521
0000d0 5a 86 f2 be 94 07 71 bf 6e 2b 83 be 10 2f 0d be
       -0.47368127 -0.9415219 -0.25619072 -0.13787484
0000e0 f1 bb d2 be ef 85 f0 be cc 74 d3 be 76 03 8f 3d
       -0.41159013 -0.46977183 -0.41300046 0.06983082
0000f0 f6 94 c7 3e 76 12 c0 bd 5a 86 f2 be 94 07 71 bf
       0.38980836 -0.09378521 -0.47368127 -0.9415219
000100 6e 2b 83 be 10 2f 0d be f1 bb d2 be ef 85 f0 be
       -0.25619072 -0.13787484 -0.41159013 -0.46977183
000110 cc 74 d3 be 76 03 8f 3d f6 94 c7 3e 76 12 c0 bd
       -0.41300046 0.06983082 0.38980836 -0.09378521
000120 5a 86 f2 be 94 07 71 bf 6e 2b 83 be 10 2f 0d be
       -0.47368127 -0.9415219 -0.25619072 -0.13787484
000130 f1 bb d2 be ef 85 f0 be cc 74 d3 be 76 03 8f 3d
       -0.41159013 -0.46977183 -0.41300046 0.06983082
000140 f6 94 c7 3e 76 12 c0 bd 5a 86 f2 be 94 07 71 bf
       0.38980836 -0.09378521 -0.47368127 -0.9415219
000150 6e 2b 83 be 10 2f 0d be f1 bb d2 be ef 85 f0 be
       -0.25619072 -0.13787484 -0.41159013 -0.46977183
000160 cc 74 d3 be 76 03 8f 3d f6 94 c7 3e 76 12 c0 bd
       -0.41300046 0.06983082 0.38980836 -0.09378521
000170 5a 86 f2 be 94 07 71 bf 6e 2b 83 be 10 2f 0d be
       -0.47368127 -0.9415219 -0.25619072 -0.13787484
000180 f1 bb d2 be ef 85 f0 be cc 74 d3 be 76 03 8f 3d
       -0.41159013 -0.46977183 -0.41300046 0.06983082
000190 f6 94 c7 3e 76 12 c0 bd 5a 86 f2 be 94 07 71 bf
       0.38980836 -0.09378521 -0.47368127 -0.9415219
0001a0 6e 2b 83 be 10 2f 0d be f1 bb d2 be ef 85 f0 be
       -0.25619072 -0.13787484 -0.41159013 -0.46977183
0001b0 cc 74 d3 be 76 03 8f 3d f6 94 c7 3e 76 12 c0 bd
       -0.41300046 0.06983082 0.38980836 -0.09378521
0001c0 5a 86 f2 be 94 07 71 bf 6e 2b 83 be 10 2f 0d be
       -0.47368127 -0.9415219 -0.25619072 -0.13787484
0001d0 f1 bb d2 be ef 85 f0 be cc 74 d3 be 76 03 8f 3d
       -0.41159013 -0.46977183 -0.41300046 0.06983082
0001e0 f6 94 c7 3e 76 12 c0 bd 5a 86 f2 be 94 07 71 bf
       0.38980836 -0.09378521 -0.47368127 -0.9415219
0001f0 6e 2b 83 be 10 2f 0d be f1 bb d2 be ef 85 f0 be
       -0.25619072 -0.13787484 -0.41159013 -0.46977183
000200 cc 74 d3 be 76 03 8f 3d f6 94 c7 3e 76 12 c0 bd
       -0.41300046 0.06983082 0.38980836 -0.09378521
000210 5a 86 f2 be 94 07 71 bf 6e 2b 83 be 10 2f 0d be
       -0.47368127 -0.9415219 -0.25619072 -0.13787484
000220 f1 bb d2 be ef 85 f0 be cc 74 d3 be 76 03 8f 3d
       -0.41159013 -0.46977183 -0.41300046 0.06983082
000230 f6 94 c7 3e 76 12 c0 bd 5a 86 f2 be 94 07 71 bf
       0.38980836 -0.09378521 -0.47368127 -0.9415219
000240 6e 2b 83 be 10 2f 0d be f1 bb d2 be ef 85 f0 be
       -0.25619072 -0.13787484 -0.41159013 -0.46977183
000250 cc 74 d3 be 76 03 8f 3d f6 94 c7 3e 76 12 c0 bd
       -0.41300046 0.06983082 0.38980836 -0.09378521
000260 5a 86 f2 be 94 07 71 bf 6e 2b 83 be 10 2f 0d be
       -0.47368127 -0.9415219 -0.25619072 -0.13787484
000270 f1 bb d2 be ef 85 f0 be cc 74 d3 be 76 03 8f 3d
       -0.41159013 -0.46977183 -0.41300046 0.06983082
000280 f6 94 c7 3e 76 12 c0 bd 5a 86 f2 be 94 07 71 bf
       0.38980836 -0.09378521 -0.47368127 -0.9415219
000290 6e 2b 83 be 10 2f 0d be f1 bb d2 be ef 85 f0 be
       -0.25619072 -0.13787484 -0.41159013 -0.46977183
0002a0 cc 74 d3 be 76 03 8f 3d f6 94 c7 3e 76 12 c0 bd
       -0.41300046 0.06983082 0.38980836 -0.09378521
0002b0 5a 86 f2 be 94 07 71 bf 6e 2b 83 be 10 2f 0d be
       -0.47368127 -0.9415219 -0.25619072 -0.13787484
0002c0 f1 bb d2 be ef 85 f0 be cc 74 d3 be 76 03 8f 3d
       -0.41159013 -0.46977183 -0.41300046 0.06983082
0002d0 f6 94 c7 3e 76 12 c0 bd 5a 86 f2 be 94 07 71 bf
       0.38980836 -0.09378521 -0.47368127 -0.9415219
0002e0 6e 2b 83 be 10 2f 0d be f1 bb d2 be ef 85 f0 be
       -0.25619072 -0.13787484 -0.41159013 -0.46977183
0002f0 cc 74 d3 be 76 03 8f 3d f6 94 c7 3e 76 12 c0 bd
       -0.41300046 0.06983082 0.38980836 -0.09378521
000300 5a 86 f2 be 94 07 71 bf 6e 2b 83 be 10 2f 0d be
       -0.47368127 -0.9415219 -0.25619072 -0.13787484
000310 f1 bb d2 be ef 85 f0 be cc 74 d3 be 76 03 8f 3d
       -0.41159013 -0.46977183 -0.41300046 0.06983082
000320 f6 94 c7 3e 76 12 c0 bd 5a 86 f2 be 94 07 71 bf
       0.38980836 -0.09378521 -0.47368127 -0.9415219
000330 6e 2b 83 be 10 2f 0d be f1 bb d2 be ef 85 f0 be
       -0.25619072 -0.13787484 -0.41159013 -0.46977183
000340 cc 74 d3 be 76 03 8f 3d f6 94 c7 3e 76 12 c0 bd
       -0.41300046 0.06983082 0.38980836 -0.09378521
000350 5a 86 f2 be 94 07 71 bf 6e 2b 83 be 10 2f 0d be
       -0.47368127 -0.9415219 -0.25619072 -0.13787484
000360 f1 bb d2 be ef 85 f0 be cc 74 d3 be 76 03 8f 3d
       -0.41159013 -0.46977183 -0.41300046 0.06983082
000370 f6 94 c7 3e 76 12 c0 bd 5a 86 f2 be 94 07 71 bf
       0.38980836 -0.09378521 -0.47368127 -0.9415219
000380 6e 2b 83 be 10 2f 0d be f1 bb d2 be ef 85 f0 be
       -0.25619072 -0.13787484 -0.41159013 -0.46977183
000390 cc 74 d3 be 76 03 8f 3d f6 94 c7 3e 76 12 c0 bd
       -0.41300046 0.06983082 0.38980836 -0.09378521
0003a0 5a 86 f2 be 94 07 71 bf 6e 2b 83 be 10 2f 0d be
       -0.47368127 -0.9415219 -0.25619072 -0.13787484
0003b0 f1 bb d2 be ef 85 f0 be cc 74 d3 be 76 03 8f 3d
       -0.41159013 -0.46977183 -0.41300046 0.06983082
0003c0 f6 94 c7 3e 76 12 c0 bd 5a 86 f2 be 94 07 71 bf
       0.38980836 -0.09378521 -0.47368127 -0.9415219
0003d0 6e 2b 83 be 10 2f 0d be f1 bb d2 be ef 85 f0 be
       -0.25619072 -0.13787484 -0.41159013 -0.46977183
0003e0 cc 74 d3 be 76 03 8f 3d f6 94 c7 3e 76 12 c0 bd
       -0.41300046 0.06983082 0.38980836 -0.09378521
0003f0 5a 86 f2 be 94 07 71 bf 6e 2b 83 be 10 2f 0d be
       -0.47368127 -0.9415219 -0.25619072 -0.13787484

global_orient f4 [105, 3]
000000 7b e8 91 bc f3 0b 24 40 20 c5 50 3e e8 38 53 bc
       -0.01781105 2.5632293 0.20387697 -0.0128919855
000010 38 b2 23 40 30 9a 51 3e d2 23 e8 bb d5 73 23 40
       2.5577526 0.20468974 -0.0070843482 2.5539448
000020 ee fb 53 3e e2 dd b3 3a 1b 76 23 40 58 23 56 3e
       0.20701572 0.0013722742 2.5540836 0.2091192
000030 73 08 7c 3b 98 6b 23 40 fb 4d 53 3e 09 76 81 3b
       0.0038457185 2.553442 0.20635216 0.0039508385
000040 79 8f 23 40 14 e3 4d 3e 2e 79 39 3b 72 b9 23 40
       2.5556319 0.20106155 0.0028300988 2.5581937
000050 9a 40 45 3e 21 26 08 3b 3d bf 23 40 2c 4c 38 3e
       0.19262925 0.002077468 2.5585473 0.17997807
000060 00 93 a1 3a 27 a1 23 40 72 6e 2b 3e 43 4a 06 ba
       0.0012327135 2.556711 0.1674135 -0.000512276
000070 73 48 23 40 6c 32 1b 3e 77 cc 47 bb e9 09 23 40
       2.551297 0.15155953 -0.003048686 2.5474799
000080 66 62 0b 3e 69 4b ab bb b7 59 22 40 90 1b f8 3d
       0.13611755 -0.0052274955 2.5367258 0.12114632
000090 96 02 21 bc c3 ea 21 40 f7 8c e7 3d 4d 4b 26 bc
       -0.009827277 2.5299537 0.11306184 -0.010149789
0000a0 c6 7a 21 40 b5 3c cf 3d 31 a7 18 bc 36 c7 21 40
       2.5231185 0.10119001 -0.009317205 2.5277839
0000b0 e6 95 c1 3d f6 fb 06 bc 2e e6 21 40 57 d8 9d 3d
       0.09452419 -0.008238783 2.529674 0.07707279
0000c0 63 03 39 bc ae 29 22 40 c4 f0 83 3d dd 59 aa bc
       -0.011292311 2.533794 0.06442407 -0.020794803
0000d0 08 23 22 40 1e a3 5b 3d aa 9f 01 bd aa b4 22 40
       2.5333881 0.053622358 -0.03164641 2.5422769
0000e0 f8 dd 22 3d fd d5 c5 bc 05 22 22 40 3e d2 1e 3d
       0.039762467 -0.02414989 2.5333264 0.03877472
0000f0 b5 05 01 bd 66 88 22 40 88 f3 6f 3c bb 4a e0 bb
       -0.031499583 2.539575 0.014645465 -0.006844846
000100 8f 82 24 40 80 0a c1 bc 0f 37 3c 3d 9a 06 27 40
       2.5704687 -0.023564577 0.045950945 2.609778
000110 33 20 96 bc 1c d2 b0 3c d6 e5 29 40 04 8b 9d bd
       -0.0183259 0.021584563 2.654653 -0.07692531
000120 f2 38 60 bc 2d e5 2a 40 9b 1f 2f be ab 1f e2 bc
       -0.013685452 2.6702378 -0.171019 -0.027602991
000130 ea a0 2c 40 a3 65 68 be c5 f6 0b bd 7a 53 2d 40
       2.6973214 -0.22695021 -0.034170885 2.70822
000140 7a 8c 85 be 8d 82 32 bd 6c 20 2e 40 92 97 7e be
       -0.26083738 -0.043581534 2.7207289 -0.24862507
000150 bb 70 51 bd a9 fb 2e 40 1b 88 34 be e5 36 8c bd
       -0.0511329 2.73411 -0.17630045 -0.06846408
000160 e8 65 30 40 eb f3 1b bd c3 94 90 bd bd eb 32 40
       2.7562199 -0.038074415 -0.07059624 2.7956383
000170 af 2e 9d 3d 70 44 9c bd f0 dc 33 40 00 6c 15 3e
       0.0767492 -0.07630241 2.81036 0.1459198
000180 22 ea a0 bd 88 1a 37 40 40 5c 3d 3e 06 65 9c bd
       -0.07857157 2.8609943 0.18492222 -0.07636456
000190 59 fe 38 40 df 4a 54 3e c5 77 ac bd b7 ff 39 40
       2.8905241 0.20731686 -0.08421282 2.9062326
0001a0 ae 07 85 3e ae f1 76 bd 6a 90 39 40 b4 68 de 3e
       0.25982422 -0.060289077 2.8994393 0.43439257
0001b0 c6 57 54 bd e4 4f 39 40 c6 67 32 3f 91 70 db bc
       -0.05184152 2.8955011 0.69689596 -0.026787074
0001c0 5c 2c 35 40 ca d1 85 3f 70 8a ab 3c 22 62 2e 40
       2.8308325 1.0454648 0.020940036 2.7247396
0001d0 2a 7a ab 3f 9b d4 0f 3d 44 a3 25 40 6a b1 cf 3f
       1.3396657 0.035114866 2.58809 1.6226017
0001e0 19 d1 42 3f 85 20 ea 3f 0c e3 05 40 18 60 60 3d
       0.7610031 1.8291174 2.0919828 0.054779142
0001f0 d6 00 f0 3f ad 76 08 40 38 11 0f 3e 97 e1 bf 3f
       1.8750255 2.1322434 0.13971412 1.499072
000200 f1 ea 19 40 07 1b 5c 3e 52 57 9b 3f 8e ec 2e 40
       2.4049647 0.21494685 1.2136023 2.7331882
000210 20 20 cf 3e 60 60 8b 3f 70 39 37 40 45 40 a0 be
       0.40454197 1.0888786 2.8628807 -0.31299034
000220 63 98 51 bf ed 4b 3c c0 7e d5 9e be 22 19 80 be
       -0.8187315 -2.9421341 -0.31022257 -0.25019175
000230 0f 36 40 c0 8a 6b 52 be f0 45 fc 3e 92 cc 3e c0
       -3.0032995 -0.20548835 0.49272108 -2.981236
000240 c6 80 76 be 10 19 9b 3f bf f4 31 c0 f6 0d 46 be
       -0.2407256 1.2117023 -2.780563 -0.19341263
000250 0e d4 f2 3f 97 f7 10 c0 e6 bd bf bd 1b bb 0b 40
       1.8970964 -2.2651117 -0.09362392 2.183295
000260 c3 f9 01 c0 c3 38 08 be 44 20 19 40 b1 92 e9 bf
       -2.0308692 -0.13302903 2.3925943 -1.8247892
000270 39 1f 17 be 3a c7 24 40 fa 8d c9 bf 3c 6e 4c bd
       -0.14758004 2.5746598 -1.5746453 -0.049909815
000280 a3 ad 26 40 ac 78 a5 bf 3f 02 44 bd b5 cb 2c 40
       2.604348 -1.2927451 -0.047853705 2.6999333
000290 b8 44 88 bf e2 eb b1 bc f5 ad 36 40 0d 85 48 bf
       -1.0645971 -0.021718923 2.8543675 -0.7832802
0002a0 83 66 fd bc 8b 90 3d 40 00 e2 0a bf 7d 7f 7c bd
       -0.03093267 2.9619472 -0.542511 -0.06164502
0002b0 9c 62 41 40 b3 d9 d4 be bf a6 f1 bd ad 3b 43 40
       3.0216436 -0.4157234 -0.117993824 3.0505173
0002c0 91 0f c6 be 10 10 c5 bd e6 d8 46 40 38 4d a3 be
       -0.3868375 -0.09622204 3.1069884 -0.3189485
0002d0 79 53 7c 3c dd f4 46 c0 ef b0 67 3e b4 56 21 bd
       0.015400761 -3.1086953 0.22626089 -0.039389327
0002e0 c6 c2 44 c0 8e a9 00 3e c9 68 08 bd 9f f3 3f c0
       -3.074388 0.1256468 -0.033303056 -2.9992445
0002f0 f8 4b d5 3d 0d d3 24 bc f5 e2 39 c0 b3 5e 7d 3d
       0.104148805 -0.010060084 -2.9044774 0.06185789
000300 4b 2d 38 3d a7 90 2f c0 79 f7 04 3e d9 d8 a1 3d
       0.04496507 -2.7432039 0.12985028 0.079026885
000310 d7 ce 22 c0 14 03 1f 3e 72 fb 79 3d a3 3a 0f c0
       -2.5438745 0.15528518 0.061030813 -2.237954
000320 c7 f8 0c 3e 57 cd a9 3c 0d 69 f4 bf 71 23 e5 3d
       0.13766776 0.020727796 -1.9094559 0.111884005
000330 8a fb e3 3c 44 0c c4 bf 2e b9 a9 3d 28 67 7f 3c
       0.027829904 -1.5316243 0.08287273 0.015588559
000340 17 9e 9d bf 83 b7 84 3d 49 b1 20 3d ce fa 82 bf
       -1.231387 0.064803146 0.039231572 -1.023279
000350 f3 ae 61 3d 32 7a 1a 3c c9 53 5e bf 0e 47 b1 3c
       0.055098485 0.009428548 -0.86846596 0.021640327
000360 29 04 49 bd b9 f6 48 bf 50 d7 2c bd 82 44 e5 bd
       -0.049076233 -0.7850147 -0.042197526 -0.111947075
000370 6a 08 42 bf 54 67 a8 bd 5d 9c 40 be ef c4 16 bf
       -0.7579409 -0.08222833 -0.18809648 -0.58894247
000380 55 80 c0 bd 3b d8 62 be 52 20 d2 be ef 9e 7e bd
       -0.093994774 -0.22152798 -0.41040283 -0.06216329
000390 75 44 22 be 11 39 2d be b6 d5 eb bc 7d 8c 38 be
       -0.15846427 -0.169163 -0.028788429 -0.18022342
0003a0 46 a3 a7 3d 93 58 2b 3c d8 6f 48 be dc 08 d7 3e
       0.08185439 0.010458129 -0.19573915 0.41998947
0003b0 87 05 11 3d d3 23 ff bd c5 95 44 3f a3 86 1d 3d
       0.035405662 -0.12458005 0.7679103 0.038458478
0003c0 b1 ba a0 bd 98 df 99 3f 5a 1d 54 3d 01 ad 4d bd
       -0.078481086 1.202136 0.051785804 -0.050213818
0003d0 0a 09 ca 3f 2b 99 a4 3d 39 9d 66 bd 79 14 11 40
       1.5784009 0.08037027 -0.056302283 2.2668746
0003e0 07 9e 35 3c 88 a8 85 bd 94 15 2a 40 7d d2 72 3c
       0.01108504 -0.065262854 2.657567 0.014820692
0003f0 9f ca 9e bd b3 e0 38 40 c7 b8 1c 3c c2 bf 11 be
       -0.07753491 2.8887146 0.009565539 -0.14233306

transl f4 [105, 3]
000000 b8 e4 ed 3a 0b c0 a7 3f b2 df a8 3a 2a 4a 24 3b
       0.0018149829 1.3105482 0.0012884049 0.002506862
000010 9e bb a7 3f 3e 9f 08 3b 6b 70 4d 3b b4 9b a7 3f
       1.3104131 0.002084687 0.0031347524 1.3094392
000020 05 21 4c 3b 7e b1 66 3b 5c 8e a7 3f e8 e8 8d 3b
       0.003114761 0.0035201008 1.309032 0.004330743
000030 d7 06 64 3b e5 7c a7 3f da 3d b9 3b 25 f4 3b 3b
       0.0034794116 1.308499 0.0056531252 0.0028679457
000040 6b 81 a7 3f 08 48 e5 3b f7 d7 d2 3a f9 97 a7 3f
       1.308637 0.006997112 0.0016086091 1.3093253
000050 e8 0c 08 3c 9f 06 a0 b9 5f a9 a7 3f 86 bd 1c 3c
       0.008303858 -0.0003052251 1.3098563 0.00956667
000060 02 be 39 bb 42 bb a7 3f b0 b1 31 3c d5 87 c2 bb
       -0.0028342013 1.3104022 0.010845587 -0.0059366026
000070 c5 c3 a7 3f 7a 2c 49 3c e2 9f 1d bc 64 d5 a7 3f
       1.3106619 0.01227867 -0.009620639 1.3111997
000080 6c ee 66 3c ed 32 65 bc 54 e6 a7 3f c1 2e 88 3c
       0.01409493 -0.013989192 1.3117166 0.016623856
000090 92 c1 9d bc c6 00 a8 3f c6 43 a6 3c 3b af d2 bc
       -0.01925734 1.3125236 0.020295989 -0.025718322
0000a0 1f 0a a8 3f 3b da d1 3c 0e d8 09 bd f1 12 a8 3f
       1.3128089 0.025616756 -0.03365331 1.313078
0000b0 c3 8e 07 3d c3 f1 30 bd 0e 10 a8 3f 96 9c 30 3d
       0.033095133 -0.043199312 1.31299 0.043118082
0000c0 cb 1c 5e bd 28 ff a7 3f 06 7c 64 3d 8b c1 87 bd
       -0.054226678 1.3124743 0.05578234 -0.06628712
0000d0 ec a2 a7 3f 07 d9 90 3d 32 1f a1 bd bc f0 a6 3f
       1.3096595 0.07072645 -0.07867278 1.3042216
0000e0 8b 40 b2 3d a5 7e b9 bd a4 3d a4 3f 62 93 d3 3d
       0.08703717 -0.09057359 1.2831311 0.103308454
0000f0 ba 63 cf bd c7 09 a0 3f 7b 6e f1 3d 0c c1 e1 bd
       -0.10126443 1.2502984 0.117886506 -0.11023149
000100 c6 16 99 3f bf 5a 04 3e a4 fe ef bd 7e f0 8d 3f
       1.1960075 0.12925242 -0.11718491 1.1089017
000110 29 b1 0b 3e 16 ce f9 bd b4 ec 86 3f a4 85 0e 3e
       0.136418 -0.12197511 1.0540986 0.13918167
000120 9b f4 fe bd 68 12 82 3f 23 71 0d 3e 7e 35 ff bd
       -0.124489985 1.0161867 0.1381269 -0.12461375
000130 2b fc 7e 3f a3 90 09 3e 5d 6c fa bd 8e f8 7c 3f
       0.9960353 0.13434081 -0.122277 0.98816764
000140 f8 0c 04 3e c0 c3 f0 bd f2 98 7e 3f 35 4d fb 3d
       0.12895572 -0.11756086 0.99452126 0.122705854
000150 0d e5 e2 bd 7c 3a 81 3f ff f5 ec 3d 59 02 d2 bd
       -0.11078844 1.0095973 0.115703575 -0.10254354
000160 e9 3d 82 3f f7 41 dc 3d 1e b3 bf bd 70 92 84 3f
       1.0175143 0.10754769 -0.09360336 1.0357189
000170 e1 20 c8 3d f7 b0 ad bd f0 26 8b 3f f7 4b b0 3d
       0.09771896 -0.08481019 1.0871258 0.08608239
000180 65 91 9d bd 0f 6f 91 3f 2d 0b 96 3d 8e 94 90 bd
       -0.076937474 1.1362017 0.0732635 -0.070595846
000190 2c 12 9b 3f f1 c3 78 3d 48 91 87 bd e1 fc a6 3f
       1.2114921 0.06073374 -0.06619507 1.3045923
0001a0 a3 1a 4f 3d 5a f3 82 bd 76 a8 b3 3f 1e 07 38 3d
       0.050562512 -0.06394072 1.4035785 0.044928662
0001b0 91 bb 82 bd fc 8a bf 3f 4f 9a 3a 3d 2f 7b 86 bd
       -0.06383432 1.496429 0.045557316 -0.06566464
0001c0 1d 77 c9 3f f0 25 5a 3d 88 54 8d bd a7 ec d0 3f
       1.5739475 0.053258836 -0.06900889 1.632222
0001d0 d4 ae 8a 3d e3 0f 96 bd ec 25 d4 3f 27 5e b3 3d
       0.06771627 -0.07327249 1.6574073 0.087581925
0001e0 66 4e 9f bd 2f 96 d4 3f 84 03 e3 3d 73 d0 a7 bd
       -0.07778625 1.6608332 0.11084655 -0.081940554
0001f0 ee 24 d2 3f 18 9b 0a 3e 27 b9 ae bd 0a 36 d0 3f
       1.641752 0.13535726 -0.08531409 1.6266491
000200 74 27 23 3e 56 b6 b3 bd 4e 22 ce 3f 9c 18 3a 3e
       0.15933019 -0.08775012 1.6104219 0.1817345
000210 fe ff b6 bd 4b 72 cd 3f 74 5a 4f 3e 70 34 b9 bd
       -0.089355454 1.6050504 0.20249349 -0.09043205
000220 17 b7 cd 3f 44 d7 63 3e 2b 24 bb bd 3d 25 cf 3f
       1.60715 0.22250086 -0.09137758 1.6183239
000230 c2 4d 79 3e 87 a1 bd bd 24 16 d3 3f 39 fb 88 3e
       0.24346069 -0.092593245 1.6491132 0.26754168
000240 b9 61 c1 bd 15 24 d7 3f 0a fd 97 3e 5e ee c6 bd
       -0.09442467 1.6807886 0.2968524 -0.09713434
000250 b9 dc dc 3f b9 68 aa 3e 82 9c ce bd fe 2c df 3f
       1.7254859 0.33283022 -0.10088445 1.7435606
000260 da 5d c0 3e b2 80 d8 bd ec 1b df 3f 28 3f d9 3e
       0.37571603 -0.10571422 1.7430396 0.42430997
000270 19 60 e4 bd 85 f5 dc 3f 9c c5 f3 3e 61 ab f1 bd
       -0.11151142 1.7262427 0.476117 -0.11800266
000280 06 14 d9 3f 30 20 07 3f 33 91 ff bd ea 38 d4 3f
       1.6959236 0.5278349 -0.124788664 1.6579869
000290 21 76 13 3f 33 99 06 be 84 82 ce 3f 1e 24 1e 3f
       0.57602125 -0.13144378 1.613358 0.6177386
0002a0 5e fa 0c be a7 49 c8 3f bf a8 26 3f d8 ee 12 be
       -0.13767383 1.5647477 0.65101236 -0.14348924
0002b0 a1 c1 c5 3f ed cd 2c 3f 08 eb 18 be c3 b5 c6 3f
       1.5449716 0.6750172 -0.14933407 1.5524219
0002c0 bd a2 30 3f c8 db 1f be b8 46 ca 3f 90 67 32 3f
       0.6899832 -0.15611184 1.5802832 0.69689274
0002d0 01 0b 29 be 4e 5b cf 3f 33 75 32 3f ed e6 35 be
       -0.16508104 1.6199739 0.6971008 -0.17763872
0002e0 10 aa d4 3f b5 28 31 3f 10 bb 47 be da 8e db 3f
       1.6614399 0.6920274 -0.19504952 1.715297
0002f0 7f da 2e 3f f2 6b 5f be a3 26 e2 3f 66 e0 2b 3f
       0.6830215 -0.21818522 1.7668041 0.6713928
000300 77 40 7d be c5 a3 e9 3f ae 94 28 3f eb 5e 90 be
       -0.24731623 1.8253103 0.6585187 -0.28197417
000310 ae b4 f1 3f fd 58 25 3f 02 4e a4 be 05 b8 f8 3f
       1.8883264 0.6458891 -0.32090765 1.9431158
000320 fb 8f 22 3f 17 6f b9 be 2a 3f fe 3f 34 8e 20 3f
       0.63500947 -0.36217567 1.9863026 0.62716985
000330 81 8c ce be 5e ee 00 40 f1 88 1f 3f 24 70 e2 be
       -0.4034157 2.0145488 0.6231833 -0.44226182
000340 c0 98 01 40 8d 8c 1f 3f ec 1e f4 be 91 fc 00 40
       2.0249481 0.6232384 -0.47679842 2.0154154
000350 5a 80 20 3f fa 81 01 bf 69 05 fd 3f 86 37 22 3f
       0.6269585 -0.50588953 1.9767276 0.6336597
000360 d4 7d 07 bf 74 0a f7 3f 69 87 24 3f cb 1e 0c bf
       -0.52926373 1.9300065 0.6426912 -0.54734486
000370 e9 c1 f1 3f d9 58 27 3f 1a 99 0f bf af 90 ed 3f
       1.8887302 0.65369946 -0.5609299 1.8559779
000380 53 ad 2a 3f 43 24 12 bf 58 42 ec 3f 6c 96 2e 3f
       0.6667072 -0.5708658 1.8457747 0.68198276
000390 63 ed 13 bf 0b 17 ed 3f 6e 24 33 3f 12 14 15 bf
       -0.577841 1.8522657 0.6997746 -0.5823375
0003a0 23 78 ee 3f fd 52 38 3f 32 af 15 bf da b0 f0 3f
       1.8630413 0.7200163 -0.5847045 1.8803971
0003b0 6e fb 3d 3f 18 d5 15 bf c1 82 f1 3f 01 d1 43 3f
       0.74211776 -0.5852828 1.8868028 0.7649079
0003c0 44 a1 15 bf 48 52 f2 3f f7 67 49 3f 8f 34 15 bf
       -0.58449197 1.893136 0.7867426 -0.58283323
0003d0 50 5b f2 3f 75 44 4e 3f 9b b0 14 bf f2 4d f0 3f
       1.8934116 0.8057321 -0.5808198 1.8773787
0003e0 0a ec 51 3f 53 32 14 bf 34 f9 eb 3f a1 f4 53 3f
       0.8200079 -0.5788929 1.8435426 0.8279515
0003f0 4a d0 13 bf 8a 40 e6 3f fc 0e 54 3f eb 9e 13 bf
       -0.577397 1.7988446 0.82835364 -0.57664365

body_pose f4 [105, 63]
000000 bf 4c 6c 3e 15 2b de 3d e7 36 fc 3b 4e fa 25 3e
       0.23076151 0.10848061 0.0076969746 0.16208765
000010 f4 29 d7 bd e5 1b 2c bd 45 c0 70 3d ee 1d 6e 3c
       -0.10506049 -0.04201879 0.058777113 0.014533503
000020 97 30 19 3d c9 9d 8f bd de 85 24 be 15 d6 65 3c
       0.037399855 -0.07012517 -0.16066691 0.014028092
000030 20 aa 4f 3d 7e 95 52 3d 5d 1c 3d bd 18 04 c3 bd
       0.050699353 0.051412098 -0.046169627 -0.09522265
000040 a8 b7 3a bd 8b 87 9b bc b3 b7 16 be fa ce 20 3e
       -0.045585304 -0.01898553 -0.14718513 0.15703955
000050 87 ca 8a bd 62 e3 ff bd e5 dc 1e be e6 f0 47 3d
       -0.0677691 -0.12494542 -0.15513952 0.048813723
000060 ba c3 4d 3c e4 f8 0c 3d da 36 19 3c b4 ab 97 bc
       0.012558872 0.034417048 0.009351457 -0.018514492
000070 73 07 28 bc 37 67 a5 3b 1c 40 95 bc ca b4 f3 ba
       -0.010255682 0.0050477046 -0.018219046 -0.0018593308
000080 39 76 82 3d 4c 2a 06 3f c7 fe d7 bb 59 3c 36 be
       0.063702054 0.5240829 -0.006591651 -0.17796458
000090 64 a8 d3 be 9a 6b 04 bf 7e 19 ed 3e dd 8c 95 be
       -0.4133941 -0.51726687 0.46308511 -0.29209033
0000a0 c2 23 0a 3f 44 d7 0c bf dc 2d 90 3c 34 8b 50 3d
       0.5396081 -0.5501597 0.017599992 0.050914004
0000b0 02 fc ca 3c 30 ff 18 bf 1a 14 14 bf e9 7a 84 3e
       0.02477837 -0.59764385 -0.5784317 0.25875023
0000c0 f3 99 2d bf 39 f7 e3 3e ad 31 a8 be c0 f0 54 bf
       -0.6781303 0.44524553 -0.328504 -0.83179855
0000d0 95 e7 4c bf a7 e1 ac 3e 90 e7 70 bf 8a 9e 7a 3f
       -0.80040866 0.3376591 -0.94103336 0.9789816
0000e0 5e 16 aa be e2 b7 7f be bf 2f 49 be 9d f7 ee 3d
       -0.3322019 -0.2497249 -0.1964712 0.11668322
0000f0 51 46 0d bf 23 dd 61 3e 66 64 ce bd f9 b5 70 3e
       -0.5518542 0.22057013 -0.10077743 0.23506917
000100 ac f4 db 3d c9 6f 86 3b 5e ab 29 3e 35 8e da bd
       0.10740027 0.0041026813 0.16569278 -0.10671655
000110 f8 b4 31 bd 9b 8c 6f 3d a0 5b 7d 3c f6 36 1b 3d
       -0.043385476 0.0584837 0.01546374 0.03789421
000120 7f 19 9f bd ae 08 28 be 12 c8 68 3c e2 84 2b 3d
       -0.07768535 -0.16409561 0.014207857 0.041874774
000130 a6 a4 4c 3d 23 af 4a bd 29 e3 bf bd 34 9d 3b bd
       0.04996171 -0.04948343 -0.09369499 -0.045804217
000140 13 74 9d bc 59 94 12 be 04 0b 26 3e fd 16 8b bd
       -0.019220388 -0.14314403 0.1621514 -0.06791494
000150 55 a3 02 be 04 4b 1b be 45 62 57 3d 7f 3a e1 3b
       -0.12757619 -0.15165335 0.05258395 0.0068734284
000160 e3 d1 0d 3d 93 e6 3e 3c ef 53 92 bc 7e fd 29 bc
       0.03462399 0.011651653 -0.017862288 -0.010375379
000170 d2 13 88 3b 0a e6 8a bc d8 20 10 bb f1 ca 84 3d
       0.0041527534 -0.016955394 -0.0021992233 0.064840205
000180 d1 d4 07 3f 00 d9 8f bb 66 f1 38 be c7 e6 d6 be
       0.5305911 -0.004389882 -0.18060836 -0.41972944
000190 69 cf 02 bf 7a bc f1 3e 4c 81 99 be 46 84 08 3f
       -0.5109773 0.4721411 -0.29981458 0.53326833
0001a0 8a 9c 0f bf df 4f bb 3c 58 c6 4d 3d 59 c3 b7 3c
       -0.56098235 0.022865234 0.050237983 0.022432016
0001b0 25 37 1a bf 00 db 13 bf 10 eb 84 3e a1 d1 2d bf
       -0.60240394 -0.5775604 0.25960588 -0.67897993
0001c0 3f 89 e5 3e 23 4c a5 be 3d 03 55 bf 52 43 4e bf
       0.44831273 -0.3228465 -0.83208066 -0.8057147
0001d0 11 38 b3 3e bc 8b 72 bf ee 31 7a 3f bc 3e b0 be
       0.35003713 -0.9474447 0.97732437 -0.34422863
0001e0 42 a8 7b be 11 fb 4e be 06 fa e1 3d cc 70 0f bf
       -0.24575904 -0.20212962 0.11034016 -0.5603149
0001f0 5f a6 60 3e c7 c1 9b bd b5 b6 72 3e e3 c9 d9 3d
       0.21938466 -0.076053195 0.2370251 0.1063421
000200 2a b7 19 3b 13 86 28 3e ee 47 db bd ef 91 3f bd
       0.0023455122 0.16457395 -0.10707079 -0.046770032
000210 ac e9 73 3d 98 2c 7d 3c 66 17 1e 3d b0 d0 a2 bd
       0.05954902 0.0154525265 0.038596533 -0.0794996
000220 a2 e6 2d be 46 bc 31 3c 49 d3 37 3d d6 c8 4b 3d
       -0.1698251 0.010848111 0.04487923 0.04975208
000230 30 86 4e bd fe 8e b8 bd cb 9a 3b bd 3c 1b 98 bc
       -0.05042094 -0.090116486 -0.04580192 -0.018567674
000240 e2 12 16 be 6f a6 27 3e 57 25 8b bd 17 f6 0e be
       -0.1465564 0.16372083 -0.067942314 -0.13961063
000250 58 c9 18 be cf 07 52 3d 70 22 89 3a 3f 18 0b 3d
       -0.14920557 0.051276978 0.0010462534 0.03395867
000260 4b 9a 61 3c 3f 0f 92 bc be 29 31 bc 1e f5 ad 3b
       0.0137696965 -0.017829536 -0.010813175 0.0053087613
000270 34 8b 83 bc 1a 84 ed ba 2a ae 87 3d 05 82 08 3f
       -0.016057588 -0.0018121034 0.06625016 0.53323394
000280 14 10 5a bb 02 33 3c be 7f bb d7 be b2 97 01 bf
       -0.0033273743 -0.18378833 -0.42135236 -0.50622094
000290 49 6c f2 3e 2d 3e 9b be 38 fc 06 3f 72 b8 10 bf
       0.4734824 -0.30320874 0.52728605 -0.5653144
0002a0 b5 ff c7 3c ca 30 51 3d 12 bf a3 3c f2 58 1b bf
       0.024413923 0.05107192 0.01998857 -0.60682595
0002b0 08 12 14 bf 3d 7a 83 3e 60 55 2e bf 34 d0 e6 3e
       -0.57840014 0.25679198 -0.6809902 0.4508072
0002c0 27 a8 a1 be 0b 8d 55 bf 1a 36 53 bf 8c 6c b9 3e
       -0.31573603 -0.8341834 -0.8250443 0.36215627
0002d0 a1 b0 75 bf 23 fb 7a 3f 9e 92 b4 be b7 cc 81 be
       -0.9597264 0.98039454 -0.3526811 -0.25351498
0002e0 c8 df 51 be fe a7 e5 3d 00 01 14 bf c3 50 5b 3e
       -0.20495522 0.112136826 -0.57814026 0.21417527
0002f0 d2 33 6c bd dc ce 70 3e 5f 7d d7 3d ec 99 47 ba
       -0.057666607 0.2351641 0.105219595 -0.00076141837
000300 2d 5d 28 3e eb 32 e6 bd 66 1a 50 bd f5 43 7e 3d
       0.16441794 -0.112401806 -0.050806426 0.062076528
000310 37 87 86 3c d5 05 19 3d 89 dc 9e bd c7 2d 31 be
       0.016421897 0.037359077 -0.077569075 -0.17302619
000320 b8 02 02 3c fc 22 29 3d a7 53 33 3d db 86 57 bd
       0.0079352185 0.04129313 0.04378095 -0.052618843
000330 b3 f4 bd bd a0 85 3e bd 47 9c 80 bc 56 1a 15 be
       -0.09275188 -0.046514153 -0.015699519 -0.14560828
000340 9b 26 21 3e df 4a 8e bd f4 bf 11 be 4e e8 15 be
       0.15737383 -0.06947874 -0.1423338 -0.14639398
000350 69 64 4c 3d 9d e3 c7 ba c6 be 07 3d a7 d3 85 3c
       0.049900446 -0.0015250329 0.03314092 0.016336275
000360 ad a6 8d bc e6 93 37 bc 14 d7 bd 3b 8a ba 73 bc
       -0.017291391 -0.011204695 0.0057934616 -0.014876017
000370 19 97 c8 ba 39 6e 88 3d 91 b7 0a 3f 46 17 02 bb
       -0.001530382 0.06661648 0.5418635 -0.0019850298
000380 3a aa 3d be b3 8c d8 be 38 39 00 bf ec 4a f2 3e
       -0.18521968 -0.42294845 -0.5008731 0.47322786
000390 38 02 9c be da 97 05 3f 73 9e 11 bf 07 26 bf 3c
       -0.30470443 0.5218483 -0.568824 0.023333563
0003a0 d5 ac 5c 3d e7 bf 9e 3c 11 64 1d bf db 75 13 bf
       0.053875763 0.019378616 -0.61480814 -0.5760171
0003b0 33 6d 84 3e 33 5c 2f bf d1 82 e6 3e 81 b4 a0 be
       0.25864562 -0.6850006 0.4502168 -0.31387714
0003c0 8a e8 56 bf f7 22 55 bf 3d ae bf 3e f1 43 79 bf
       -0.83948576 -0.8325648 0.3743762 -0.97369295
0003d0 af 1a 7c 3f 0d 74 b9 be 8c 54 86 be d4 6e 54 be
       0.98478216 -0.36221352 -0.2623638 -0.20745403
0003e0 79 95 e8 3d af c3 1a bf 4c eb 55 3e c8 b9 55 bd
       0.11356635 -0.6045484 0.2089054 -0.052179128
0003f0 6b 4b 6f 3e 23 00 d5 3d eb fe 9f 39 fc 65 26 3e
       0.23368613 0.10400417 0.00030516772 0.16249841

betas f4 [105, 10]
000000 f6 94 c7 3e 76 12 c0 bd 5a 86 f2 be 94 07 71 bf
       0.38980836 -0.09378521 -0.47368127 -0.9415219
000010 6e 2b 83 be 10 2f 0d be f1 bb d2 be ef 85 f0 be
       -0.25619072 -0.13787484 -0.41159013 -0.46977183
000020 cc 74 d3 be 76 03 8f 3d f6 94 c7 3e 76 12 c0 bd
       -0.41300046 0.06983082 0.38980836 -0.09378521
000030 5a 86 f2 be 94 07 71 bf 6e 2b 83 be 10 2f 0d be
       -0.47368127 -0.9415219 -0.25619072 -0.13787484
000040 f1 bb d2 be ef 85 f0 be cc 74 d3 be 76 03 8f 3d
       -0.41159013 -0.46977183 -0.41300046 0.06983082
000050 f6 94 c7 3e 76 12 c0 bd 5a 86 f2 be 94 07 71 bf
       0.38980836 -0.09378521 -0.47368127 -0.9415219
000060 6e 2b 83 be 10 2f 0d be f1 bb d2 be ef 85 f0 be
       -0.25619072 -0.13787484 -0.41159013 -0.46977183
000070 cc 74 d3 be 76 03 8f 3d f6 94 c7 3e 76 12 c0 bd
       -0.41300046 0.06983082 0.38980836 -0.09378521
000080 5a 86 f2 be 94 07 71 bf 6e 2b 83 be 10 2f 0d be
       -0.47368127 -0.9415219 -0.25619072 -0.13787484
000090 f1 bb d2 be ef 85 f0 be cc 74 d3 be 76 03 8f 3d
       -0.41159013 -0.46977183 -0.41300046 0.06983082
0000a0 f6 94 c7 3e 76 12 c0 bd 5a 86 f2 be 94 07 71 bf
       0.38980836 -0.09378521 -0.47368127 -0.9415219
0000b0 6e 2b 83 be 10 2f 0d be f1 bb d2 be ef 85 f0 be
       -0.25619072 -0.13787484 -0.41159013 -0.46977183
0000c0 cc 74 d3 be 76 03 8f 3d f6 94 c7 3e 76 12 c0 bd
       -0.41300046 0.06983082 0.38980836 -0.09378521
0000d0 5a 86 f2 be 94 07 71 bf 6e 2b 83 be 10 2f 0d be
       -0.47368127 -0.9415219 -0.25619072 -0.13787484
0000e0 f1 bb d2 be ef 85 f0 be cc 74 d3 be 76 03 8f 3d
       -0.41159013 -0.46977183 -0.41300046 0.06983082
0000f0 f6 94 c7 3e 76 12 c0 bd 5a 86 f2 be 94 07 71 bf
       0.38980836 -0.09378521 -0.47368127 -0.9415219
000100 6e 2b 83 be 10 2f 0d be f1 bb d2 be ef 85 f0 be
       -0.25619072 -0.13787484 -0.41159013 -0.46977183
000110 cc 74 d3 be 76 03 8f 3d f6 94 c7 3e 76 12 c0 bd
       -0.41300046 0.06983082 0.38980836 -0.09378521
000120 5a 86 f2 be 94 07 71 bf 6e 2b 83 be 10 2f 0d be
       -0.47368127 -0.9415219 -0.25619072 -0.13787484
000130 f1 bb d2 be ef 85 f0 be cc 74 d3 be 76 03 8f 3d
       -0.41159013 -0.46977183 -0.41300046 0.06983082
000140 f6 94 c7 3e 76 12 c0 bd 5a 86 f2 be 94 07 71 bf
       0.38980836 -0.09378521 -0.47368127 -0.9415219
000150 6e 2b 83 be 10 2f 0d be f1 bb d2 be ef 85 f0 be
       -0.25619072 -0.13787484 -0.41159013 -0.46977183
000160 cc 74 d3 be 76 03 8f 3d f6 94 c7 3e 76 12 c0 bd
       -0.41300046 0.06983082 0.38980836 -0.09378521
000170 5a 86 f2 be 94 07 71 bf 6e 2b 83 be 10 2f 0d be
       -0.47368127 -0.9415219 -0.25619072 -0.13787484
000180 f1 bb d2 be ef 85 f0 be cc 74 d3 be 76 03 8f 3d
       -0.41159013 -0.46977183 -0.41300046 0.06983082
000190 f6 94 c7 3e 76 12 c0 bd 5a 86 f2 be 94 07 71 bf
       0.38980836 -0.09378521 -0.47368127 -0.9415219
0001a0 6e 2b 83 be 10 2f 0d be f1 bb d2 be ef 85 f0 be
       -0.25619072 -0.13787484 -0.41159013 -0.46977183
0001b0 cc 74 d3 be 76 03 8f 3d f6 94 c7 3e 76 12 c0 bd
       -0.41300046 0.06983082 0.38980836 -0.09378521
0001c0 5a 86 f2 be 94 07 71 bf 6e 2b 83 be 10 2f 0d be
       -0.47368127 -0.9415219 -0.25619072 -0.13787484
0001d0 f1 bb d2 be ef 85 f0 be cc 74 d3 be 76 03 8f 3d
       -0.41159013 -0.46977183 -0.41300046 0.06983082
0001e0 f6 94 c7 3e 76 12 c0 bd 5a 86 f2 be 94 07 71 bf
       0.38980836 -0.09378521 -0.47368127 -0.9415219
0001f0 6e 2b 83 be 10 2f 0d be f1 bb d2 be ef 85 f0 be
       -0.25619072 -0.13787484 -0.41159013 -0.46977183
000200 cc 74 d3 be 76 03 8f 3d f6 94 c7 3e 76 12 c0 bd
       -0.41300046 0.06983082 0.38980836 -0.09378521
000210 5a 86 f2 be 94 07 71 bf 6e 2b 83 be 10 2f 0d be
       -0.47368127 -0.9415219 -0.25619072 -0.13787484
000220 f1 bb d2 be ef 85 f0 be cc 74 d3 be 76 03 8f 3d
       -0.41159013 -0.46977183 -0.41300046 0.06983082
000230 f6 94 c7 3e 76 12 c0 bd 5a 86 f2 be 94 07 71 bf
       0.38980836 -0.09378521 -0.47368127 -0.9415219
000240 6e 2b 83 be 10 2f 0d be f1 bb d2 be ef 85 f0 be
       -0.25619072 -0.13787484 -0.41159013 -0.46977183
000250 cc 74 d3 be 76 03 8f 3d f6 94 c7 3e 76 12 c0 bd
       -0.41300046 0.06983082 0.38980836 -0.09378521
000260 5a 86 f2 be 94 07 71 bf 6e 2b 83 be 10 2f 0d be
       -0.47368127 -0.9415219 -0.25619072 -0.13787484
000270 f1 bb d2 be ef 85 f0 be cc 74 d3 be 76 03 8f 3d
       -0.41159013 -0.46977183 -0.41300046 0.06983082
000280 f6 94 c7 3e 76 12 c0 bd 5a 86 f2 be 94 07 71 bf
       0.38980836 -0.09378521 -0.47368127 -0.9415219
000290 6e 2b 83 be 10 2f 0d be f1 bb d2 be ef 85 f0 be
       -0.25619072 -0.13787484 -0.41159013 -0.46977183
0002a0 cc 74 d3 be 76 03 8f 3d f6 94 c7 3e 76 12 c0 bd
       -0.41300046 0.06983082 0.38980836 -0.09378521
0002b0 5a 86 f2 be 94 07 71 bf 6e 2b 83 be 10 2f 0d be
       -0.47368127 -0.9415219 -0.25619072 -0.13787484
0002c0 f1 bb d2 be ef 85 f0 be cc 74 d3 be 76 03 8f 3d
       -0.41159013 -0.46977183 -0.41300046 0.06983082
0002d0 f6 94 c7 3e 76 12 c0 bd 5a 86 f2 be 94 07 71 bf
       0.38980836 -0.09378521 -0.47368127 -0.9415219
0002e0 6e 2b 83 be 10 2f 0d be f1 bb d2 be ef 85 f0 be
       -0.25619072 -0.13787484 -0.41159013 -0.46977183
0002f0 cc 74 d3 be 76 03 8f 3d f6 94 c7 3e 76 12 c0 bd
       -0.41300046 0.06983082 0.38980836 -0.09378521
000300 5a 86 f2 be 94 07 71 bf 6e 2b 83 be 10 2f 0d be
       -0.47368127 -0.9415219 -0.25619072 -0.13787484
000310 f1 bb d2 be ef 85 f0 be cc 74 d3 be 76 03 8f 3d
       -0.41159013 -0.46977183 -0.41300046 0.06983082
000320 f6 94 c7 3e 76 12 c0 bd 5a 86 f2 be 94 07 71 bf
       0.38980836 -0.09378521 -0.47368127 -0.9415219
000330 6e 2b 83 be 10 2f 0d be f1 bb d2 be ef 85 f0 be
       -0.25619072 -0.13787484 -0.41159013 -0.46977183
000340 cc 74 d3 be 76 03 8f 3d f6 94 c7 3e 76 12 c0 bd
       -0.41300046 0.06983082 0.38980836 -0.09378521
000350 5a 86 f2 be 94 07 71 bf 6e 2b 83 be 10 2f 0d be
       -0.47368127 -0.9415219 -0.25619072 -0.13787484
000360 f1 bb d2 be ef 85 f0 be cc 74 d3 be 76 03 8f 3d
       -0.41159013 -0.46977183 -0.41300046 0.06983082
000370 f6 94 c7 3e 76 12 c0 bd 5a 86 f2 be 94 07 71 bf
       0.38980836 -0.09378521 -0.47368127 -0.9415219
000380 6e 2b 83 be 10 2f 0d be f1 bb d2 be ef 85 f0 be
       -0.25619072 -0.13787484 -0.41159013 -0.46977183
000390 cc 74 d3 be 76 03 8f 3d f6 94 c7 3e 76 12 c0 bd
       -0.41300046 0.06983082 0.38980836 -0.09378521
0003a0 5a 86 f2 be 94 07 71 bf 6e 2b 83 be 10 2f 0d be
       -0.47368127 -0.9415219 -0.25619072 -0.13787484
0003b0 f1 bb d2 be ef 85 f0 be cc 74 d3 be 76 03 8f 3d
       -0.41159013 -0.46977183 -0.41300046 0.06983082
0003c0 f6 94 c7 3e 76 12 c0 bd 5a 86 f2 be 94 07 71 bf
       0.38980836 -0.09378521 -0.47368127 -0.9415219
0003d0 6e 2b 83 be 10 2f 0d be f1 bb d2 be ef 85 f0 be
       -0.25619072 -0.13787484 -0.41159013 -0.46977183
0003e0 cc 74 d3 be 76 03 8f 3d f6 94 c7 3e 76 12 c0 bd
       -0.41300046 0.06983082 0.38980836 -0.09378521
0003f0 5a 86 f2 be 94 07 71 bf 6e 2b 83 be 10 2f 0d be
       -0.47368127 -0.9415219 -0.25619072 -0.13787484

global_orient f4 [105, 3]
000000 6b f0 37 40 03 cb ad bc d0 e1 5c bf 83 e8 37 40
       2.874049 -0.021214968 -0.8628206 2.8735664
000010 9b 97 c0 bc 51 7b 5e bf 3f dd 37 40 e7 67 cd bc
       -0.023509791 -0.86906916 2.8728788 -0.025073959
000020 55 89 5f bf 35 03 38 40 7c c3 e5 bc 3e 87 5f bf
       -0.8731893 2.8751957 -0.028047316 -0.8731574
000030 0b 53 38 40 2a 28 e9 bc c7 22 60 bf 35 c3 38 40
       2.8800685 -0.028461535 -0.87553066 2.8869145
000040 66 02 ef bc e1 d5 5f bf 4d 38 39 40 5a 59 f4 bc
       -0.029175948 -0.8743573 2.8940613 -0.029827762
000050 fb a1 5f bf 75 b6 39 40 73 e5 f9 bc 17 8e 60 bf
       -0.8735654 2.9017613 -0.030504918 -0.8771681
000060 45 28 3a 40 84 05 f1 bc 49 54 62 bf 95 a4 3a 40
       2.9087079 -0.029421575 -0.8840986 2.9162953
000070 0d 42 ef bc 8e 9f 65 bf c2 13 3b 40 26 7a e0 bc
       -0.0292063 -0.89696586 2.923081 -0.027401995
000080 8a 93 68 bf 50 58 3b 40 55 b0 cb bc 48 07 6e bf
       -0.90850127 2.9272652 -0.024864355 -0.9297986
000090 e3 72 3b 40 dc bc a5 bc 65 d7 71 bf 4a b3 3b 40
       2.9288871 -0.020231657 -0.9446929 2.932818
0000a0 88 db 71 bc c0 45 75 bf 89 2d 3c 40 25 71 43 bc
       -0.014761813 -0.95809555 2.9402792 -0.011928831
0000b0 78 4d 74 bf e3 ad 3c 40 1b 19 6f bc 20 9d 74 bf
       -0.9543071 2.9481132 -0.014593388 -0.95552254
0000c0 4b 3d 3d 40 7c c7 91 bc e3 93 73 bf d6 71 3d 40
       2.956866 -0.017795317 -0.9514753 2.960073
0000d0 f9 4f 8a bc e3 b4 73 bf e8 bb 3d 40 32 88 be bc
       -0.016883837 -0.95197886 2.964594 -0.023258302
0000e0 12 88 6f bf ba 93 3e 40 9f 9c f7 bc cf 6d 6e bf
       -0.93567 2.9777665 -0.03022605 -0.93136305
0000f0 7c 15 40 40 95 a1 f6 bc bd 08 6c bf 11 05 40 c0
       3.0013113 -0.030106345 -0.92200834 -3.0003092
000100 03 8c 34 3d 80 85 5e 3f 8d eb 40 c0 c2 73 9a 3d
       0.044078838 0.86922455 -3.0143769 0.0754161
000110 69 2c 4e 3f 8d 65 3f c0 09 77 93 3d 5b 3e 3d 3f
       0.80536515 -2.9905732 0.072004385 0.7392327
000120 c6 63 3d c0 88 c9 75 3d 7a 7b 39 3f f2 42 3e c0
       -2.9592147 0.06000665 0.72454035 -2.972836
000130 ef 46 54 3d 58 1b 32 3f eb 50 3f c0 56 76 42 3d
       0.05182546 0.69572973 -2.9893138 0.047476135
000140 94 45 2c 3f ae 98 41 c0 5b 65 07 3d 5a a1 28 3f
       0.6729367 -3.0249438 0.033055644 0.658712
000150 8e 67 44 40 21 67 7b bc b2 52 26 bf 24 7d 3f 40
       3.0688205 -0.015344412 -0.64969933 2.992013
000160 23 53 6d 3c f4 8c 14 bf 48 b0 3a 40 38 2e 34 3d
       0.014485153 -0.5802758 2.9170094 0.04398939
000170 f8 94 fe be 2f 6e 36 40 37 e0 81 3d 36 03 ed be
       -0.4972303 2.850475 0.06341594 -0.46291512
000180 5b 26 33 40 e8 8d 83 3d c6 39 c5 be d6 ae 2e 40
       2.799216 0.06423551 -0.3852064 2.7294211
000190 1f f6 64 3d 82 00 a1 be 52 7e 28 40 91 ef 70 3d
       0.055898782 -0.314457 2.63271 0.05882222
0001a0 9d 58 83 be d4 0c 21 40 20 85 66 3d d6 c4 5d be
       -0.25653544 2.516408 0.0562793 -0.21657118
0001b0 51 ca 15 40 df f7 81 3d d7 1c 1f be cc c3 09 40
       2.3404734 0.06346106 -0.15538345 2.1525755
0001c0 88 3f 85 3d f5 7e de bd 13 d7 fd 3f 5e 48 40 3d
       0.06506258 -0.10864059 1.983126 0.046944015
0001d0 16 a4 e5 bd 65 8e dd 3f 40 c1 1b 3d 92 fc c7 bd
       -0.112129375 1.730908 0.038026094 -0.09764971
0001e0 d0 b4 77 3f 46 68 a4 be c0 e1 30 be 59 00 64 3f
       0.9676027 -0.32110804 -0.17273617 0.8906303
0001f0 eb 80 87 bd 14 38 35 be 76 1a 0c 3f 37 5b e0 bd
       -0.06616386 -0.17697173 0.54727876 -0.10954898
000200 6b 93 46 be 04 9f 70 3e 58 2b ba bd 20 5c 0f be
       -0.19392173 0.2349816 -0.090902984 -0.13999987
000210 4d 10 9b 3d cc 44 c3 bd 6f 01 a8 bd 0b 90 f0 bd
       0.075714685 -0.09534606 -0.082033984 -0.11746224
000220 e7 91 b0 bd 1f ca 65 bd c2 3e c7 be 1b 08 0d be
       -0.08621579 -0.05610096 -0.38915068 -0.13772623
000230 3b 6c 0e bc 6e 8e 1f bf 26 1a de bd 21 49 89 3c
       -0.008692796 -0.62326705 -0.10844831 0.016758503
000240 88 98 55 bf 07 b1 35 be ad 74 10 3d 49 90 92 bf
       -0.8343587 -0.17743312 0.03526752 -1.1450282
000250 e5 0d 12 be 6a c8 de 3d 56 b9 b2 bf 23 02 ab bd
       -0.14263113 0.1087807 -1.396281 -0.08350017
000260 d7 b3 d8 3d 35 a2 d6 bf f5 ef b4 bd 39 aa 05 3e
       0.10581177 -1.6768252 -0.08834831 0.13053216
000270 fc aa 00 c0 a4 ae bb bd a0 d8 06 3e e7 d1 0e c0
       -2.010436 -0.091641694 0.13168573 -2.2315614
000280 7f c6 46 bd 2a f2 6c 3e 40 24 1b c0 ac 53 30 bd
       -0.048529144 0.23139253 -2.4240875 -0.043048546
000290 c0 0c 75 3e 08 d2 28 c0 c3 5f 52 bd 54 44 3d 3e
       0.23930645 -2.6378193 -0.051360857 0.18483096
0002a0 8e bd 31 c0 1d c4 97 bd 41 df 10 3e bb 94 36 c0
       -2.7771945 -0.074104525 0.14147665 -2.8528278
0002b0 4f fb d1 bd 51 62 c6 3d 6b 79 39 c0 b2 8e 09 be
       -0.102530114 0.09686721 -2.8980358 -0.1343334
0002c0 53 ea 77 3d 9e b0 3b c0 80 f6 00 be a0 f1 6d bc
       0.060526203 -2.9326549 -0.12594032 -0.01452294
0002d0 4e d4 3e c0 5e 02 e0 bd b1 ce be bd 07 d4 41 c0
       -2.981708 -0.109379515 -0.09316767 -3.0285661
0002e0 8d 90 c1 bd 6a c6 2a be e2 c1 42 c0 1c eb bc bd
       -0.09451399 -0.16677251 -3.0430837 -0.09224531
0002f0 f1 a7 9b be 15 f8 44 c0 46 07 a7 bd 2e 4a eb be
       -0.30401567 -3.0776417 -0.08155684 -0.45955032
000300 a4 4a 40 c0 2d da b4 bd df 3f 34 bf 82 42 39 c0
       -3.0045557 -0.08830676 -0.7040996 -2.8946843
000310 04 60 f9 bd c8 e7 7e bf 08 1c 2d c0 c5 29 0c be
       -0.12176517 -0.9957242 -2.704836 -0.13687809
000320 4b 09 b5 bf 56 8e 1b c0 bd 92 00 be a6 f4 ea bf
       -1.4143461 -2.4305625 -0.12555976 -1.8355911
000330 fa cd 02 c0 dc 63 c0 bd a5 5c 10 c0 4a 9c d6 bf
       -2.0438218 -0.09394047 -2.2556546 -1.6766446
000340 32 26 0b bc 4a 2b 22 c0 47 a6 b2 bf cd f3 30 3d
       -0.008492993 -2.5338922 -1.3956994 0.043201257
000350 7a 9e 2c c0 61 0c 98 bf a1 5c ff 3d c7 da 33 c0
       -2.6971726 -1.1878778 0.124688394 -2.810228
000360 eb b1 8a bf 2e ca 67 3e e7 57 39 c0 4b 69 87 bf
       -1.0835546 0.22635719 -2.8959901 -1.0579008
000370 7e 07 99 3e db fd 3a c0 7e 1b 52 bf 61 91 c4 3e
       0.2988853 -2.921744 -0.820732 0.38392165
000380 31 2d 3f c0 fc 49 0e bf 6a bf d6 3e fc 2c 41 c0
       -2.9871333 -0.5558164 0.41942912 -3.0183706
000390 02 f1 68 be 58 2e c0 3e ca 36 42 c0 c3 58 1e 3e
       -0.22748187 0.37535357 -3.034594 0.15463547
0003a0 f0 a4 c4 3e 1e 1e 40 c0 f9 23 33 3f 1a 0a ad 3e
       0.38407087 -3.0018382 0.69976765 0.3379677
0003b0 97 d9 3a c0 cd e1 9d 3f 67 a2 88 3e a2 ff 30 c0
       -2.9195306 1.2334534 0.26686403 -2.7656026
0003c0 1f c2 e8 3f 33 1f 61 3e 9a 8f 1c c0 d1 e4 10 40
       1.8184241 0.21984558 -2.4462647 2.2639658
0003d0 d4 5a 60 3e 32 a3 05 c0 fa 88 38 c0 91 13 54 be
       0.21909648 -2.0880857 -2.8833604 -0.20710589
0003e0 40 22 9b 3f e0 02 44 c0 92 af 5f be 05 e5 20 3f
       1.2119827 -3.0626755 -0.21844319 0.62849456
0003f0 51 f9 45 c0 a3 36 6f be 12 2b 83 3e 79 38 44 c0
       -3.093342 -0.23360686 0.25618798 -3.0659468
